examples/cifar/cifar_net_5.pth (torch, 250887 bytes, 10 tensors)

conv1.weight f4 [6, 3, 5, 5]
00000000: 278c 443e 4499 6e3e 0bf9 ffbe f2ed acbe
00000010: e7ad 883e 7f0b 1b3c b798 80bd ad93 3cbe
00000020: 7b4b e4bd bb70 59bd 5829 29bf 2825 d5be
00000030: f028 b53e df62 bc3d 18c6 73be 7952 34be
00000040: 504d a5be 8c5c ec3d fed2 06be 3441 68be
00000050: 1469 a2bd 7751 8b3d 4e79 a4be dc12 6cbc
00000060: 2720 9dbc b6d5 e43e 2ddf c33e 0a07 cfbe
00000070: 2c36 4ebe 0f2b 4c3e e625 ad3e dd2f 693e
00000080: 2e25 3b3c f710 d23d 9fde 0cbd c895 7cbe
00000090: b106 43be b3ff 0f3f 7094 9f3e 5b14 b23c
000000a0: b66f 893d ea12 4ebe eebb 973e 047e c33d
000000b0: 4956 103d 6ebc 8d3d edbb 7a3d d238 96bd
000000c0: c231 84bd c21d 7d3e d006 cb3d 9c64 e2bc
000000d0: dc01 1cbf 42e2 f6be 3cc2 583e 6df5 ae3d
000000e0: c7a7 9ebd 33e8 98be 4f77 f3bd da68 8fbd
000000f0: 0630 b5be 157d c8be 6618 e33e a5e7 033d
00000100: ae99 59bd 8f99 cdbb 81be 34be 03bb 723e
00000110: 642d 2d3d d29a debd 39d8 153e bd00 4e3e
00000120: d77c 1bbe fa45 93bd 591f 813d 01d4 243f
00000130: 72e5 f33e 88ac e83e 6cec b83e bd20 d23e
00000140: d0fb 2a3e 7301 d6bd ea71 443e 3e06 be3e
00000150: 479e ab3e 0608 fc3a 9dc0 dabe dce9 65be
00000160: aeb4 23be b525 d83d 5ff7 83be b97e b8be
00000170: b5ee 3abe d679 8fbe b7a6 26bd 3958 e2be
00000180: fe7a bebe 8729 fcbd e6fe 8ebe 0cae f2bd
00000190: 0268 1dbe ab37 2bbe 3090 77bd f769 91be
000001a0: 04fd 56bd 5c92 90be fbcf 18bf f6d0 e1be
000001b0: 6783 36be a68c 8dbd 52cb ecbe 1726 15bf
000001c0: 6e2c 11bf 4c29 f5be de3d 40be 3825 3bbe
000001d0: 867c 88be b8a0 4abe 8f33 3cbe dd95 fdbd
000001e0: e906 9cbd 3054 9a3d 99d7 a83d 4595 93bd
000001f0: 8cc6 c33d 367e 84bd 09b6 e2bd 2145 be3c
00000200: 1c59 08be a44d c63d f746 10bd 2d49 80be
00000210: 7906 08be cb97 153e fa74 723e 2437 9abd
00000220: 4c2a 86be 620c 52be a1c4 3abd 485e cf3d
00000230: 6eb1 803e 2596 1e3e 1b14 713e 6d44 153c
00000240: 80a7 5f3e 8b2a e33e 8113 033f 44ea 053f
00000250: 74c7 c73e 4c0d 883e 534f e13c 0c42 25be
00000260: c857 5bbe 6f43 d5bd 4c2e a1bd 48dc ffbc
00000270: 93b6 71be 2ce4 48be c286 68be 52df 12be
00000280: 837c e4bd 5647 7fbe 2d67 44be f666 a3be
00000290: 3360 ccbd 13f4 a9bd aa7c febd 6e5d 9ebe
000002a0: 1a29 60be 8153 42be 3355 88be 0e4c 5dbe
000002b0: 94dc 2dbe 6ef4 4cbe a676 f0bd 3db1 ba3c
000002c0: 7820 773d 8ae9 f33d a8e9 993d b97d 293c
000002d0: 4b4e 983d 4935 863d d9c2 a03b e248 dc3d
000002e0: a994 c8bc 7d8a a73d 0201 183e 419d ac3c
000002f0: 0bcc 0e3c 1935 50bd 2204 243b 39b2 443c
00000300: dea3 3a3e d462 163e 04a9 b83d 9ef5 63bd
00000310: 5ff5 bbbd 1910 c53d ab5a d53c b977 02be
00000320: c6f1 703d 8a58 993e ad75 7a3e 1841 f4b9
00000330: 6a1e 193d bfeb 863e 9464 9a3e c962 723e
00000340: 97b4 783e e78d 6b3d 22c1 203e 46ed 9f3e
00000350: 6446 bc3e 1af5 9a3e 666e 3a3e ae4f 533e
00000360: cb78 803e 13c8 7a3e bc2a 9d3e aee6 9d3c
00000370: 9d41 bebc 7064 073e 84bf 253e 217c 153e
00000380: 02ce c03d 3fb0 0f3d 5e67 69be 42c9 b13c
00000390: 9483 a3bd 8473 9c3e eb8f 70bc 8d4d bdbd
000003a0: a557 dd3e 886e 1d3d 30ae a3be 31cf acbe
000003b0: fa92 f13d 7c0a 563f 5993 3d3d 8a0e 13bf
000003c0: f6a9 99be 4d4e b33d 50d7 273f 56ba 78bd
000003d0: 626b b5be f2ea 6dbd 3f63 39bd 8485 823e
000003e0: e323 5ebb 0169 a6bc fe27 423e 2188 47be
000003f0: 5c10 d73d fde1 66be c0b5 cbbd b977 b23d
0.19194089 0.23300654 -0.49994692 -0.33775288 0.26695177 0.00946319 -0.06279128 -0.18415709
-0.11147209 -0.053086024 -0.6607871 -0.4162991 0.35382795 0.09198546 -0.23806036 -0.17609586
-0.32285547 0.115410894 -0.13166425 -0.22681123 -0.07930198 0.068026476 -0.32123798 -0.014408793
-0.01918037 0.44694299 0.38256207 -0.40435058 -0.20137852 0.199383 0.33817977 0.22772165
0.011422439 0.10257142 -0.034391996 -0.24666512 -0.19045521 0.5624954 0.31167936 0.021738222
0.0671076 -0.20124403 0.29635566 0.0954552 0.035238538 0.06920706 0.061214376 -0.07335056
-0.06454803 0.24718383 0.09913409 -0.027635865 -0.6094034 -0.48219496 0.21167845 0.08542905
-0.07746845 -0.29864654 -0.11887991 -0.07002421 -0.353882 -0.3915793 0.44354552 0.032203335
-0.053125076 -0.006274409 -0.17650796 0.23704152 0.042279616 -0.108693734 0.14633264 0.20117469
-0.15184341 -0.07191081 0.06304807 0.6438599 0.4763599 0.4544413 0.36117876 0.41040602
0.16697621 -0.10449495 0.1918408 0.37114137 0.33519194 0.0019228465 -0.42725077 -0.22452492
-0.15986893 0.10554067 -0.25774667 -0.36034182 -0.18255122 -0.2802264 -0.040686335 -0.44207934
-0.3720321 -0.12312608 -0.27928847 -0.11849603 -0.15371707 -0.16720454 -0.060440242 -0.28401157
-0.05248739 -0.28236663 -0.59692353 -0.44104737 -0.17823564 -0.06911592 -0.4624887 -0.58261245
-0.5670842 -0.4788307 -0.187736 -0.18275917 -0.26657504 -0.19787872 -0.18379043 -0.123821
-0.076185055 0.07535589 0.08244247 -0.07206205 0.09559354 -0.06469385 -0.11069877 0.023226323
-0.13315243 0.096827775 -0.035223927 -0.2505583 -0.13283719 0.14608686 0.23677436 -0.075300485
-0.26204145 -0.20512536 -0.045597676 0.101254046 0.25135368 0.15486963 0.23542826 0.009110552
0.2184124 0.44368395 0.51201636 0.52310586 0.39019358 0.26572645 0.027503645 -0.16138476
-0.21420205 -0.104132526 -0.078701586 -0.031232968 -0.23604803 -0.1961829 -0.22707656 -0.14343002
-0.11156561 -0.24929556 -0.19179983 -0.3191449 -0.09979286 -0.082985066 -0.124261215 -0.30930656
-0.21890679 -0.18977167 -0.26627502 -0.21611044 -0.16978675 -0.20015118 -0.117413804 0.022789592
0.0603337 0.119097784 0.075152695 0.010344916 0.07436808 0.06553132 0.00490604 0.10756089
-0.02448495 0.081807114 0.14844134 0.021071078 0.00871564 -0.050831888 0.0025026877 0.012005382
0.18226573 0.14686137 0.09016612 -0.05565416 -0.0917766 0.09622211 0.02604421 -0.12740983
0.058824323 0.29950362 0.24458952 -0.00046587805 0.03738252 0.26351735 0.3015486 0.23670496
0.2428764 0.057508375 0.15698674 0.31235713 0.36772454 0.30265123 0.18206176 0.20635864
0.25092158 0.24490385 0.30696666 0.019275036 -0.023224646 0.13221908 0.16186339 0.14598133
0.09414293 0.03508019 -0.22793338 0.021702413 -0.07984081 0.3055688 -0.01468275 -0.09243307
0.4323093 0.03843549 -0.31968832 -0.33751824 0.11795612 0.8360975 0.0462831 -0.5744406
-0.30012482 0.08755169 0.65562916 -0.06072458 -0.3543349 -0.05808539 -0.045260664 0.2549249
-0.0033895902 -0.020313742 0.18960568 -0.19485523 0.10501167 -0.22547145 -0.099467754 0.087142415

conv1.bias f4 [6]
00000000: f030 403e e314 21bf 7222 2a3f 3fcf 73be
00000010: 38ab 90be 1841 bdbe
0.18768668 -0.62922496 0.6645881 -0.23809527 -0.2825563 -0.36963725

conv2.weight f4 [16, 6, 5, 5]
00000000: c85b 65bd 2a35 183d a5d4 9a3e 1283 9f3d
00000010: 14c9 0a3e b430 653e 026a 12be 754b cf3d
00000020: a3c6 b33e a443 053c df60 873c 65aa f13d
00000030: d8e8 82bc 0215 80bd 2bf3 423e 6498 9dbe
00000040: 06fb ebbd 810f 2b3e ba68 38be 7fbf 78bd
00000050: ae86 a6be 7795 ccbe 36c4 0dbe f15d 1dbe
00000060: be40 f3bd 7236 ef3d 06c4 243e f6a7 2cbd
00000070: d4e3 b5bd 08a2 163e 7f54 25be b1b0 833e
00000080: 555a 863e bf0a d13c 9899 07be 1c8a 6abe
00000090: 791d b0bd 6e64 8d3e c661 c33e 9767 e93d
000000a0: 98cf e23a 072c 15be b847 5fbe e42e 1e39
000000b0: 572b 463e 07aa f03c 7f22 90bd b42e 30be
000000c0: 51e4 64be e8b7 a6bd 3106 17be 37e5 f738
000000d0: dc45 103e 1398 363e 22f2 aa3e 0c81 3fbe
000000e0: 7c7d 9ebe 836d 0cbe 0627 103c 5441 483e
000000f0: 2f99 883c 0329 43be f108 78be 1c1a 21be
00000100: a5d3 67bd 4a60 383e 8878 cd3d c4bb 58bd
00000110: 952f 3ebe 1a08 1fbe 9c56 4c3e 5346 173e
00000120: dc72 103e 9604 fd3d f031 b1bd f526 603e
00000130: 2a50 81be f011 003e 5817 083e 6f07 003e
00000140: e71a c53e a208 693e b127 a1be be98 5b3d
00000150: e48d b2bd 40aa 26be 3123 9a3e e884 febc
00000160: af1b 89be 27d5 d7bd c503 d8be 9124 d6bd
00000170: 6fe9 b63d 3d73 e3bd a08c 1abd e921 aabe
00000180: e3a3 d2be b52b 46bd a06e ebbc f338 c0bd
00000190: 23b8 04be fb44 a73e 90ed cc3d 0b1d 2fbe
000001a0: ab86 803d 0f0d 4abe ac92 f7bd 0a1a d23e
000001b0: 0396 263e 7335 6dbd 0a75 793d 9e15 b1be
000001c0: e197 5fbe 11d7 6f3e 625d 863d 01be f03d
000001d0: a5da 6dbd 64bb 9fbe 343a 2fbe 310e 5d3c
000001e0: a4de cd3c 2b87 ca3d 6969 84bd 661b 18be
000001f0: 3173 3bbd a3f2 203e 23f8 babd a75c 10be
00000200: 2b3b fdbd eb71 45bd 0dde 683e efbd 443e
00000210: f3c2 97be d2fb 49be 1df8 053e 9d2e b2be
00000220: d4bf d23d 9504 a13e e30f 343d 1075 893d
00000230: 75dc febe 2de6 65be cec8 73bd 0646 843e
00000240: c67e 5e3d 373e 53be d474 54be 0546 10be
00000250: 1352 23bd eeb2 753e d354 4c3d 40f7 a9bd
00000260: 9593 1c3d 5895 f5bd 3be2 dcbd 34b0 8cbd
00000270: 8266 2cbd 9d7e c93b 4970 7ebd 2be4 f73b
00000280: 5bee 3fbd 94d3 f23a f578 3f3d 3ebd 913d
00000290: c5f1 363e 239d 673b ed62 1c3d e034 c1bd
000002a0: 1312 b03d 5d50 163e 4013 243e 196a 9e3d
000002b0: 6a79 0ebe 000b b2bd 13c5 1abd abee 673d
000002c0: b0dd 1dbd f551 0abc 4b9a 0ebd 59ca a2bc
000002d0: 6ac9 0fbc 6566 a9bd 086b 00be 07be 81bd
000002e0: b4b6 173d 5767 f9bd b824 b9bd 06ff 01be
000002f0: 49c9 2cbe 8e83 c33d 2c37 103e 51cc 4a3e
00000300: 4c99 d03d e8ed 113e 7b35 053e 1871 5f3b
00000310: 3d6f 863d a4fd 13bc 1c55 06be 4cb2 1abe
00000320: 99a4 2f3e abc7 573e 6221 5f3e d145 b93d
00000330: 190e be3d 3ec8 f1bb 7fcf 62bd c655 d2bb
00000340: 5743 3abd 02e5 adbd 0405 c4bd 148c 3bbd
00000350: 33de c4bd b9ee d3bd b0cb 4ebe cb3c 4fbd
00000360: 34d7 45be 0e13 2fbe f099 0cbe dd5a b7bd
00000370: 7d2c 353e cc6d 953d dec6 c93d 2ad9 a03d
00000380: 9210 f23d e3e4 3ebe 0839 503d b823 ebbc
00000390: 9a96 d9bc 5e62 19bd 9a11 19bd bc16 28bd
000003a0: 734f 2abe ae7a 613d b8a6 693c 3723 f93d
000003b0: 01af 3dbe 40cd 8ebe 6c3f 043d 5aa5 84bc
000003c0: 7113 b03d 3bd0 4ebe 6848 a2be 18a5 44bd
000003d0: 9478 623d e94f fd3d 3cbc c63c c961 7abd
000003e0: e56c d33d 8c6b a73d 7651 d53c 0da2 1ebd
000003f0: 6f7d e039 e12e 5ebd 3459 13be c068 1f3e
-0.055995733 0.037160076 0.3024036 0.077886716 0.13553268 0.2238186 -0.14298251 0.10121814
0.35112485 0.008133803 0.016525684 0.11800078 -0.01598017 -0.06254007 0.19038074 -0.30780327
-0.11522488 0.16705133 -0.180087 -0.0607295 -0.32524627 -0.39957783 -0.1384438 -0.15367867
-0.11877583 0.116803065 0.16090402 -0.042152368 -0.088813454 0.14710248 -0.16145514 0.25720742
0.26240793 0.02551782 -0.13242185 -0.22904247 -0.085993715 0.27615684 0.38160533 0.11396711
0.0017304299 -0.14567576 -0.21804702 0.00015085522 0.1935247 0.02937795 -0.070378296 -0.17205316
-0.22352721 -0.08140546 -0.14748456 0.000118205724 0.14089149 0.17831449 0.33387858 -0.18701571
-0.30955112 -0.1371365 0.008798366 0.1955617 0.016674606 -0.19058613 -0.24222161 -0.15732616
-0.056598324 0.18005481 0.10032755 -0.052913442 -0.18572839 -0.15530434 0.19954914 0.1477292
0.14106315 0.1235439 -0.08652103 0.21889861 -0.25256473 0.12506843 0.13290155 0.12502836
0.38497087 0.227572 -0.31475595 0.053612463 -0.0871847 -0.16275883 0.30104974 -0.031069234
-0.26778933 -0.105387025 -0.42190376 -0.10456193 0.08931243 -0.11105964 -0.037731767 -0.33228996
-0.4114066 -0.048381526 -0.028739274 -0.09385862 -0.12960868 0.32669815 0.10006249 -0.17100923
0.06275686 -0.19731544 -0.12088522 0.4103549 0.16268162 -0.0579123 0.060902633 -0.34586805
-0.21835281 0.23421885 0.0656078 0.1175499 -0.058069844 -0.31197655 -0.17112046 0.013492153
0.025130577 0.098890625 -0.06465418 -0.14854202 -0.045764152 0.15717559 -0.091293596 -0.14097844
-0.12364801 -0.048204344 0.22740956 0.19213079 -0.29640922 -0.19724968 0.13082929 -0.34801188
0.102904946 0.31448808 0.043960463 0.06711781 -0.4977757 -0.22451086 -0.059517674 0.25834674
0.05432012 -0.20629202 -0.20747691 -0.1408921 -0.039873194 0.23994038 0.049885582 -0.08299112
0.038226683 -0.11991376 -0.107853375 -0.068695456 -0.042089947 0.0061491267 -0.062118802 0.0075650415
-0.046858173 0.001852619 0.046746213 0.07116173 0.17865665 0.0035341464 0.03818028 -0.09433913
0.085971974 0.14679094 0.16022968 0.0773508 -0.13913503 -0.08693504 -0.0377856 0.056624096
-0.038541496 -0.008442392 -0.034815114 -0.019871878 -0.008776048 -0.08271483 -0.12540829 -0.06335073
0.037039474 -0.12177914 -0.09040207 -0.1269494 -0.16873659 0.095465764 0.14083546 0.19804503
0.10185489 0.1425091 0.13008682 0.0034094509 0.06564186 -0.009032641 -0.13118404 -0.15107077
0.17152633 0.21072261 0.21790078 0.090465195 0.09280033 -0.007378607 -0.055373665 -0.0064189164
-0.045474377 -0.084909454 -0.09571269 -0.045787886 -0.09612694 -0.10348267 -0.20194888 -0.050595086
-0.19320375 -0.17097113 -0.13730597 -0.08952878 0.17692752 0.07296333 0.09852384 0.07853921
0.11819567 -0.18642001 0.05083564 -0.028703555 -0.02656107 -0.037447326 -0.0373703 -0.041037306
-0.1663187 0.055048637 0.01426094 0.1216492 -0.1852379 -0.27890968 0.032287046 -0.016192127
0.08597458 -0.20196621 -0.31695867 -0.04800901 0.055290774 0.12368757 0.024259679 -0.06112841
0.10323504 0.0817481 0.02603982 -0.038728762 0.00042818065 -0.054243926 -0.14389497 0.15567303

conv2.bias f4 [16]
00000000: 8d19 0a3b 2c95 d2be 353d 14bf 2acc 5c3f
00000010: 6516 99be 3362 e0be 2d82 c63e 23fd 123d
00000020: 3faa 513f e979 843f 571a 333d b4c4 74be
00000030: 93e0 c23f bccf a0bf 5060 c7be d69e bdbe
0.0021072358 -0.41129434 -0.57905895 0.8624903 -0.29899898 -0.4382492 0.3877119 0.03588594
0.819004 1.0349704 0.04372629 -0.23903161 1.5224785 -1.2563396 -0.38940668 -0.37035245

fc1.weight f4 [120, 400]
00000000: fa9c 10bd 950e f9bd 472a 41bd b8e8 3ebd
00000010: 5f86 2bbd d6b0 233c dc29 663b 32af b8bd
00000020: 7f14 213d 21b7 a8bd cbea 7b3d be04 ffbd
00000030: baa3 14bd c977 48bd ed5e 4f3d f7d1 2f3d
00000040: 2de9 45bd 234e 583d d48d 1d3d 5dc8 953d
00000050: 8407 003e eb99 be3b be46 f13d c72a fb3d
00000060: 8425 113c b642 273d a4e9 fe3c 77f1 fb3c
00000070: d717 b23d f29d a03d 9964 7c3d 6fc8 28bb
00000080: d843 c2bc 0931 523c c37d 473e a275 233d
00000090: d330 16bb 1d14 7bbc 8f74 9fb9 3b99 c1bb
000000a0: 1313 c3bd 20c1 cf3c 88bc af3b 8036 b9bd
000000b0: affe ff3b 6434 b3bc f629 85bd 4102 273b
000000c0: ba7f d83c 7035 3ebd e439 8cbd 860c 3bbd
000000d0: 481a 10be 1087 93bd ae85 a4bd 1457 af3c
000000e0: 1503 ac3c c7e4 843d 7547 a23a cdf2 583c
000000f0: d63a de3d 91c0 bdbb 2917 cc3d 31a0 dfb9
00000100: 6c2d 7b3c ced0 6dbd 097c 7abc 3107 a8bd
00000110: 3489 80bc 380c fbbc 71d7 82bd 4cf4 cebd
00000120: 229f e5bd 6926 a2bd 40a9 4abd d65d 773d
00000130: 1ced d23d af83 9d3c b27e 3b3d a6c9 3e3e
00000140: 2676 75bd 4720 a23c b001 05bc bf75 c0bd
00000150: d84d 0fbd 2ac5 57bd 1466 003d 31e1 08bd
00000160: 5fbb dcbd 9086 dfbd 9eb1 e4bc c883 4bbc
00000170: 365f c4bd 6320 d1bd 9eff 52be b4e2 96bd
00000180: db65 dc3c 20a7 21bd c481 19be 5e2d 28be
00000190: 065b 9f3d 4107 893c e483 c03c a532 4ebc
000001a0: 0393 6b3c 401e 953d cea5 803d d8cb 0a3d
000001b0: 34c1 933d e94d 123d 3f23 333d 0842 ad3d
000001c0: 535b 863d 6f51 783c d437 72bd 6563 a0bc
000001d0: 3388 033d 2f8b a83d 973a b0bd a553 c7bd
000001e0: a250 a9bb 1857 cfbd 12d8 933c 3f01 54bd
000001f0: e3c5 9dbd e8e3 a33c b818 89bd 2310 82bc
00000200: 3f48 b53d c918 093d f294 a639 b869 2b3d
00000210: 512c ad3d 113e a33d 19bb f33d e5f2 3dbd
00000220: 402c 663d 68e7 7d3d 25bb 603d c8df fa3c
00000230: 1644 1d3c 7cef c13d 0751 09bd 8aa8 ce3b
00000240: bfbd 913c 8ae0 6a3d 5bbe 70bd 3061 a23c
00000250: 9a9c 5cbb 24a0 3c3d 9cfc aabc d946 1dbd
00000260: 34fe d3bd 01a4 95bc f965 45bd 3ac1 05be
00000270: 9e22 6cbc 8c60 d1bd 56a4 71bd 5bb3 243d
00000280: 1f79 eabd 94c2 abbd 459e 06be c6c3 30bd
00000290: 8e46 20bd 010f bebb 9e6b 02bc 098a a13c
000002a0: 4523 05bd 10bb a33d 1b00 2c3b 36a2 25bd
000002b0: 5bf9 203e b1f2 173e 5105 b03c 06e7 acbd
000002c0: 6f47 a1bd bf28 83bc 38ce 84bd e475 733d
000002d0: 4f1e 3dbd af15 82bd d08f a5bd d1f7 1dbe
000002e0: 331e 443d 7b0f a63d 184d aebc 8a16 09be
000002f0: 4488 38bd 3ac2 88bd 864d 013e 6ca8 b93c
00000300: f96b babc 56ef bfba 2a72 03be 7fd0 f63c
00000310: 6c10 9a3d b749 7f3d 5203 fcbb 4100 5cbd
00000320: 0f7d ed3d 9a2e 493d f419 ff3c 63f0 3e3d
00000330: c323 0f3e ce17 c03c f60d 813d 1471 77bd
00000340: 30d3 a43c be66 423d a17f e3bc 12c9 973d
00000350: 8419 03bc 7da9 f4bc 71d6 d2bd 81ce a3bd
00000360: 0ad0 8fbd 023d cd3a 131a b1bc 96a7 9cbd
00000370: 8c16 b4bd bf0b babb 03ea 833a 1db9 c0bd
00000380: d28f 01bd 0491 083e 2bf3 803d 7e7b 9d3c
00000390: 36b9 b8bc 579e 8dbd b280 d7bc 06ed 923d
000003a0: 50bb 3d3d 95a5 7c3d a681 223c 8d31 b2bd
000003b0: 0ec1 d0bc 83af 09bc 883e eb3d ac21 293d
000003c0: 75ea e3bd 86b5 adbc 95ac d5bd 13a5 6abc
000003d0: 3c64 203d 51d2 e2b7 13a0 0f3d 13fe 293d
000003e0: 8ab7 9a3d bceb 1a3d 9407 7d3c 66e6 9d3c
000003f0: 1ce1 a53d 5c2a 74bc b4ca a5bd 04b7 46bd
-0.035305955 -0.121609844 -0.04715946 -0.046608657 -0.041876193 0.009990891 0.0035120165 -0.09017791
0.039326187 -0.08238054 0.061503213 -0.124520764 -0.036288954 -0.04894236 0.050627638 0.042924847
-0.048318077 0.052808892 0.038465336 0.07313607 0.12502867 0.0058166883 0.11781071 0.122640185
0.008859042 0.040835105 0.031117268 0.030754788 0.08695953 0.07842626 0.061619375 -0.0025754233
-0.023713991 0.012829074 0.19481568 0.039907105 -0.0022917285 -0.01532462 -0.00030413686 -0.005908159
-0.095251225 0.025360644 0.005363051 -0.09043598 0.007812343 -0.021875568 -0.06502144 0.0025483521
0.026428092 -0.04643768 -0.06846979 -0.04566624 -0.14072526 -0.072034955 -0.0803331 0.021403827
0.020997563 0.06488948 0.0012380915 0.013241482 0.10851066 -0.005790778 0.09965355 -0.00042653226
0.015330654 -0.05806046 -0.015288361 -0.08204497 -0.015690424 -0.030645475 -0.063887484 -0.1010519
-0.11211993 -0.079174824 -0.049477816 0.060392223 0.10299131 0.01922783 0.045775123 0.1863161
-0.05992713 0.019790782 -0.008118078 -0.09397458 -0.034986347 -0.052678265 0.03134735 -0.033417884
-0.10777926 -0.10914338 -0.027916726 -0.012421556 -0.095884725 -0.102112554 -0.20605323 -0.07367459
0.026904037 -0.039466023 -0.14990908 -0.16423556 0.07781033 0.016727092 0.02350039 -0.012585317
0.014378312 0.0728116 0.06281625 0.033885807 0.07214585 0.035718832 0.043734785 0.0845986
0.065603875 0.015156134 -0.059135273 -0.019578645 0.03211231 0.08229672 -0.08604925 -0.09732751
-0.005167083 -0.10124034 0.018047366 -0.051759 -0.077037595 0.020006135 -0.06694168 -0.015876835
0.088516705 0.033470903 0.0003177296 0.041848868 0.08455718 0.079708226 0.119009204 -0.04637422
0.056194544 0.061988264 0.054865975 0.030624285 0.0095987525 0.09469506 -0.03352454 0.0063067125
0.017790673 0.057343043 -0.058775287 0.019821733 -0.0033662678 0.04605116 -0.020872407 -0.038397644
-0.1035122 -0.01826668 -0.04819295 -0.13061991 -0.01441255 -0.10223493 -0.058994614 0.04021011
-0.11448883 -0.08386722 -0.13146313 -0.043155454 -0.039129786 -0.0058001284 -0.007960228 0.01971914
-0.03250434 0.07994664 0.002624518 -0.0404379 0.15720122 0.14838673 0.02148691 -0.08442502
-0.07874953 -0.01601064 -0.064846456 0.0594386 -0.046171483 -0.06351792 -0.08084071 -0.15426566
0.047880363 0.081084214 -0.021276996 -0.13387504 -0.045051828 -0.06677671 0.12627229 0.022663318
-0.022756563 -0.0014643471 -0.12836519 0.030128716 0.075226635 0.06232616 -0.0076908255 -0.05371118
0.11596119 0.04911671 0.031140305 0.04661597 0.13978486 0.023448851 0.06301491 -0.060410574
0.020120233 0.047461264 -0.02777082 0.07411398 -0.008001689 -0.029865975 -0.10294808 -0.07998372
-0.07022102 0.001565844 -0.021618878 -0.07649152 -0.08793363 -0.00567767 0.0010064248 -0.094103076
-0.0316313 0.13336569 0.062963806 0.019223925 -0.022549253 -0.069149666 -0.026306484 0.07174115
0.046321213 0.06168135 0.009918606 -0.08700857 -0.02548268 -0.008403662 0.11486536 0.041291878
-0.111287035 -0.021204721 -0.10433308 -0.014321583 0.03915809 -2.7039236e-05 0.035064768 0.04150207
0.075545385 0.03782247 0.015443701 0.019274902 0.08099577 -0.014902677 -0.08095303 -0.04851438

fc1.bias f4 [120]
00000000: 9cb3 04bd 80f5 d7ba e67b ba3b 80b5 f53c
00000010: 3e44 dd3d 82ab ccbc 7d07 c63c 66c7 b73d
00000020: 6802 e03d f27c 4bbd 7bd2 a23d 8619 583e
00000030: 9f68 043d 2e2c d4bc 0dd7 91bc a6db 0c3b
00000040: 2d07 8dbd 98d9 273b 2231 52bd 6223 c5bb
00000050: 3c05 543e 182a 933e 8776 c5bd b2bb d13c
00000060: d6bc 4fbd f249 183e e190 293e 4d63 153e
00000070: 8ee2 b63d df86 563b 1310 1a3e c2d7 36bb
00000080: e305 a03d 1d2d 473e ca80 0b3e 0aed 093e
00000090: 2e64 213e e020 323d c57a 4cbe 0521 bcbd
000000a0: bc5e 713c 3dbf 763d 61c1 f03d 4a15 a63d
000000b0: 1c38 c83d bf20 f2bc bbe2 71bd 38a2 66bb
000000c0: d332 b0bc 9096 263c 91e0 dd3d a7ac f43d
000000d0: cc0f 263e 01ad 7e3d 7a40 043e 459d 8dbd
000000e0: 40ab 383e ff45 03bd 8c92 193e e192 1a3b
000000f0: 3ac8 843d 551b dbbd e2cc 1d3b 20a6 a1bc
00000100: 1f24 a6bc d0b5 24bd 64ca 963c c351 7e3e
00000110: b508 88bc 81ee 1e3d 1e8e 8c3e 3e46 c73d
00000120: 7652 adbd 0089 493e f284 94bd 2103 583e
00000130: b797 60bd a68c 0a3e bf6a ed3d 0a41 7dbd
00000140: c35f 2ebe 747d ca3b 893a 2dbd 664d 083d
00000150: f845 633e 6116 71bd acb0 48bc 7972 c73d
00000160: abd1 b03d 0165 cbbd 4b75 5cbe cee0 99bd
00000170: 8aae e53b 121c b33c 1e38 a33c 2f0c 3c3c
00000180: 958c 32bd 4886 293d a58b 9e3d 2a43 083e
00000190: 94b7 873e 3914 6dbe adc9 b2bd f259 71bd
000001a0: 05fa 8abd 593a 803c 8a13 e3bb 6913 3a3c
000001b0: aa35 be3d 3fac e93c 4697 41bd 14b7 64be
000001c0: 240f d03d 00f5 923d af18 f9bb d2be 123e
000001d0: d71e 92bd 7b07 14bd 871e a6bd bedf fe3d
-0.03239785 -0.0016476363 0.0056910394 0.029993773 0.10804032 -0.024984125 0.024173493 0.08973579
0.10937959 -0.049679704 0.07950302 0.21103486 0.032326337 -0.025899973 -0.01780274 0.0021493225
-0.06886134 0.0025611874 -0.051316388 -0.006016181 0.20705122 0.28743052 -0.09641748 0.025602195
-0.050717197 0.14871958 0.16559173 0.14588661 0.089299306 0.0032734198 0.15045194 -0.0027899598
0.07813623 0.19450803 0.13623348 0.1346933 0.15760872 0.043488383 -0.19968708 -0.091859855
0.014732059 0.060240973 0.11755634 0.08109529 0.09776327 -0.02955663 -0.059054118 -0.0035191905
-0.02150861 0.010167733 0.10833848 0.11946993 0.16216964 0.062176708 0.12915221 -0.069147624
0.18034077 -0.032049175 0.1499731 0.0023586082 0.06483503 -0.106985725 0.0024078419 -0.019732535
-0.020280896 -0.040212452 0.018407054 0.24835877 -0.016605714 0.038801674 0.27452177 0.097301945
-0.08462994 0.19681168 -0.0725192 0.21094944 -0.054832187 0.13530216 0.11592626 -0.061829604
-0.17028718 0.006179506 -0.04229215 0.033276938 0.2219466 -0.058859233 -0.012249153 0.09738631
0.08633741 -0.09931374 -0.21529119 -0.07513581 0.007009332 0.02186397 0.01992422 0.011477514
-0.0435911 0.041387826 0.07741479 0.13306871 0.26507246 -0.23152246 -0.08729873 -0.05892367
-0.06785969 0.015652822 -0.0069298195 0.011357167 0.09287579 0.028524516 -0.047263406 -0.22335464
0.10159138 0.07175636 -0.0076018195 0.14330605 -0.071347885 -0.036139946 -0.081112914 0.12445019

fc2.weight f4 [84, 120]
00000000: 716a 84bd 3feb e4bd 2057 6b3e 3abb c73b
00000010: 34bb 363d ba08 543d 5803 28bd 146d acbd
00000020: 4028 91bd e001 29be 13b8 243c 3815 0fbd
00000030: 4ec5 00bd 3ecd bb3c f761 97bd 839f 1fbd
00000040: 16d2 9dbc d70e 783d 482d 37bd 2668 073d
00000050: 879b 3a3d 7778 083e d7f0 113e 4a9f 9cbd
00000060: 0275 8f3d ecd4 a5bd 5e35 773c 3809 283c
00000070: 15f2 163d 1548 31bd 3d18 a5bd 5f11 30bd
00000080: b57e 26bd 86b3 8fbc 951a 4c3d 8205 6bbd
00000090: 85a8 043c a558 4c3c 203c 96bd 9c48 cfbd
000000a0: 66c1 023d e5c0 bcbd e804 d839 aa82 edbd
000000b0: 4b40 8d3d 9572 d6bd c9ec 2c3c 8fab 9a3d
000000c0: 3f45 643d 2af2 05be 4ee0 89bd 1084 56bd
000000d0: 9baa e63d d65a d33c 668e 7c3d bb1c 93bd
000000e0: 29fd f83d 9809 01be 2e0e d43d 475f 183d
000000f0: bbff d83c 3d3b 7fbc d55c bbbd 81c8 253d
00000100: 2695 163c 6136 f6bc 5d80 443d 67fc a73d
00000110: 9f7f 25bd 49e4 023e e32d e73d d2b2 f9bb
00000120: 6e2e 96bd 1ed8 16bd 777b 73bd 6d9b 903c
00000130: d732 babd 148e 7bbc af1a 3ebd 39f2 9abd
00000140: 7d86 fcbd f0dd 28bd 4570 e1bd 3f39 6cbc
00000150: 07f6 0d3d 28c7 24bd f004 c0bd 8847 2e3d
00000160: 4893 74bd 7a5f fcbd f0fb 97bd d1c6 ba3b
00000170: 1222 79bd 8c15 8fbd 24b3 b139 0878 c43d
00000180: 0fdc 2a3b 4763 e13b 8240 d03d 471b 333d
00000190: f725 1a3c 6985 5abd d0da 003d 70c4 3cbc
000001a0: 1131 a4bd 8861 e1bd b4fa 863b 719b 03bd
000001b0: d743 ce3b d906 873c 3b28 343c 1705 07bd
000001c0: 836b ad3d 546a d9bd e87d 293d 5f61 d33c
000001d0: 7974 05be 9ba6 1e3d 89de 663d 8845 133d
000001e0: cbfc 1bbd dde7 6fbe 6e32 95bd db8e 533c
000001f0: afdd 813d f5bb 8f3c 4a14 a8bd d482 4c3d
00000200: c9a7 5fbd f8df 10bd a4ae d83d 6c9e 29bd
00000210: 5f52 34bd 552b a83c 0c79 95bd b67a b9bc
00000220: 311a a33b 788c 82be 8ad3 953d 6b60 85bc
00000230: 7fc9 96bd 4eb9 d3bd a8ce cbbd d965 023e
00000240: 9fec 31be 40d7 ea3c a726 0fbe 8b45 0a3e
00000250: cc90 b23d 1b78 493d 046a e93d 17c5 8dbd
00000260: 645d db3d f331 823d 2b44 3d3e 7222 9dbc
00000270: eb7f 1b3e 9d40 aa3d d2e5 5bbd 50e2 0bbd
00000280: 1196 c0bd 0f55 363e 8cf0 133d 32b8 243d
00000290: 4a5f 37bd b3c2 51bd 710c dd3c 6df3 60bd
000002a0: bec5 983d ef8c fbbc 1ddb 6ebd b415 c1bd
000002b0: 71cf 073d 5da3 20bc e3f9 a03d 3e46 523d
000002c0: 4f3e 8e3d 7a2c e1bc 85e8 e93b 835b 913d
000002d0: 30e1 4d3d f720 23bc b9fe 31bd bef6 0dbe
000002e0: e433 05bd 8725 173c 4649 fabc 33f0 893d
000002f0: 94d7 bdbd 8237 043e c550 8a3d 6067 683e
00000300: 8d71 01be 792c 5b3d 6322 6f3d 3ed9 1ebd
00000310: 6e10 babd d98f 893e 9a56 a53d 1db3 29bd
00000320: 29b6 1bbd cd02 c3bd 82ea c13d a0f1 f8bd
00000330: df71 7cbd 5d22 c1bd c541 3e3d 7c7a 45bd
00000340: f365 7cbd 4315 cd3d e6a4 44be 4c48 b8bd
00000350: d748 d63d 2367 d63d 2992 853d 5fdc 07be
00000360: 10f5 28bc 7e81 85bd 439d 9d3b 12eb 873d
00000370: b3f9 273b 1c7c d6bd a851 85bc 3836 583d
00000380: fac7 5bbd 5619 143c 4cd9 493c 4bbb 28bd
00000390: 80f7 0e3d 46f1 4a3d 48ce a2bd a3a1 393c
000003a0: df93 3c3e 8011 eabd 236d 713d 886d a23c
000003b0: e783 bebd 359a 37bd 9f24 4d3d 722d ad3d
000003c0: 1f74 913d 2098 253e 415b e1bd f83a 5ebd
000003d0: fe39 1abe 44e5 623d 9496 013e 8626 633a
000003e0: 46cc 12bd afe2 72bd e027 053d c8a0 863c
000003f0: 7322 95bd 5350 61bd 9872 71bb ac52 29bd
-0.064656146 -0.11177682 0.22982454 0.006095317 0.044612125 0.051766135 -0.041018814 -0.084192425
-0.07087755 -0.16504622 0.010053652 -0.034932345 -0.031438164 0.022925016 -0.07391732 -0.03897048
-0.019265216 0.060561027 -0.044720918 0.033058308 0.04555848 0.13327204 0.1425203 -0.076475695
0.07004739 -0.08097252 0.015088407 0.010256104 0.03685196 -0.043281633 -0.08061264 -0.042985316
-0.04064818 -0.017541658 0.049830038 -0.0573783 0.008096819 0.012472306 -0.07335687 -0.10121271
0.03192272 -0.09216479 0.00041202386 -0.11597188 0.068970285 -0.104710735 0.010554501 0.075522535
0.0557301 -0.1308066 -0.06732236 -0.05237204 0.11263009 0.02580015 0.06165924 -0.07183214
0.121576615 -0.12601316 0.10354267 0.03720024 0.02648913 -0.015578088 -0.09148566 0.04047442
0.009190833 -0.030055227 0.04797398 0.08202439 -0.040404912 0.12782396 0.11288049 -0.007620194
-0.073330745 -0.0368272 -0.059443917 0.017652238 -0.09091728 -0.015353698 -0.046412166 -0.075657316
-0.12330339 -0.04122728 -0.11007742 -0.014417945 0.034658458 -0.040228993 -0.09375942 0.042548686
-0.05971077 -0.12322898 -0.074211 0.0056999703 -0.060823508 -0.069865316 0.0003389354 0.09593207
0.0026071107 0.00687829 0.10168554 0.043727186 0.009408466 -0.053349886 0.031458676 -0.011521444
-0.08017171 -0.11004931 0.0041192416 -0.032130662 0.0062947082 0.016482757 0.01099592 -0.03296384
0.08467772 -0.106159836 0.04137984 0.025803266 -0.13032712 0.038733106 0.05636457 0.035954982
-0.03808288 -0.23428293 -0.07285009 0.012912477 0.06341111 0.01754568 -0.08206995 0.049929455
-0.05460337 -0.035369843 0.10580185 -0.04141085 -0.044023868 0.020528475 -0.072984785 -0.022641521
0.0049774875 -0.25497794 0.073157385 -0.016281327 -0.07362651 -0.103380784 -0.09951526 0.12734164
-0.1737542 0.028667092 -0.13979588 0.13503091 0.08719024 0.049186807 0.11397174 -0.069223575
0.10711172 0.06357183 0.18483035 -0.019181464 0.15185516 0.08313105 -0.05368597 -0.034151375
-0.09403623 0.17805885 0.036118075 0.040214725 -0.04476861 -0.05121107 0.026983472 -0.05491965
0.07459591 -0.03070685 -0.05831443 -0.09427968 0.033156816 -0.009804574 0.07860162 0.05133652
0.06945478 -0.027487028 0.007138314 0.070975326 0.050263584 -0.00995659 -0.043455813 -0.13863656
-0.03252019 0.009225256 -0.030552518 0.067352675 -0.09269634 0.129118 0.06753687 0.22695684
-0.12640972 0.05350921 0.058382403 -0.038781397 -0.09085165 0.2686756 0.080731586 -0.04143058
-0.03801552 -0.095220186 0.09468557 -0.12155461 -0.061632033 -0.094303824 0.04644944 -0.048212513
-0.061620664 0.10013821 -0.19203529 -0.089981645 0.10463112 0.104688905 0.065220185 -0.13267659
-0.010312334 -0.06518839 0.004810007 0.06636633 0.002563101 -0.10472891 -0.016274288 0.052786082
-0.05365751 0.009039244 0.012319874 -0.04119424 0.034904003 0.049546503 -0.07949501 0.011330041
0.18415783 -0.11429119 0.05894197 0.01982762 -0.09302502 -0.044824798 0.050083753 0.08455934
0.071022265 0.16171312 -0.110037334 -0.054255456 -0.15061185 0.055394426 0.12655097 0.0008665103
-0.03583934 -0.059298214 0.03250873 0.016434088 -0.07281961 -0.055008244 -0.0036841985 -0.041338608

fc2.bias f4 [84]
00000000: f77d 483e 97cb 793d 604e d33d 13c4 aa3e
00000010: 2720 153e e704 03bd d7e2 c8bd 6df8 c73d
00000020: 3ba1 e23e c90d 0f3d 1b68 103e d6b8 5d3d
00000030: ba4f 583e d8d8 333c 0b81 a63e 2422 513e
00000040: df5d a33d 38a1 ba3e 9fa3 1c3e 7e34 e43d
00000050: 54b5 a93e a9cb d43c 6ba4 4f3e 0bbb cc3d
00000060: f5be 75bb 9cdc d43d 1b81 513e 7763 073e
00000070: b32d 89bb 53ec 4a3e 4243 aabd e4ed b7bb
00000080: 9763 9ebc 6444 75bc b4c4 2e3d d74b e53d
00000090: 5e7d 6f3e 6804 583d 557b 923e 9de5 b53e
000000a0: 139a 8e3e f5ab bdbd 1dcb 423e 1da8 fb3d
000000b0: 615c 273b 8339 1dbd 83d7 b5bd 384f 103e
000000c0: 80da ee3e 8df7 713d cf73 a13d 763b 173f
000000d0: a2e6 ebbc 8a6e 1cbc 0b89 803d 5223 1d3d
000000e0: d910 ac3e 5d22 a53d d197 bf3e c3b8 d43e
000000f0: 965f d33d 6723 e4bc 13cc b73e 14fd c63b
00000100: dcbd 0e3d 1c77 053d 7355 f23e 95c8 753d
00000110: cd63 24bd 88ed 83bc 1c31 4c3e 25f4 b13e
00000120: f857 b33e c23b 793e 740b 11bd 296e bbbd
00000130: 91fd 12bd 3092 1a3c 7573 b9bc 67cf c73d
00000140: 6bcd 8e3d 0fc4 d33e 4e49 d2bc 3e7f 953d
0.19579302 0.060985174 0.10317683 0.33352718 0.14563046 -0.031987097 -0.09808891 0.0976418
0.44263634 0.034925256 0.14102213 0.05413135 0.21124163 0.010976993 0.32520327 0.2042318
0.07976889 0.36451125 0.15296791 0.111428246 0.33146155 0.025976019 0.20277564 0.09996613
-0.0037497852 0.103936404 0.20459406 0.13221537 -0.004186356 0.19816713 -0.0831361 -0.0056130756
-0.019334598 -0.014969919 0.04266806 0.11196106 0.23387668 0.052738577 0.2860972 0.35526744
0.27851924 -0.09261314 0.19022794 0.122879244 0.002553724 -0.038384926 -0.08878996 0.1409272
0.46651077 0.059073973 0.07883417 0.59075105 -0.028796498 -0.009547839 0.06276139 0.038363762
0.33606604 0.08063195 0.37420514 0.41547212 0.10320966 -0.027848912 0.35897884 0.0060726497
0.034849033 0.032584295 0.47330818 0.060005743 -0.04013424 -0.016104475 0.19940609 0.3475658
0.35028052 0.24339202 -0.035411313 -0.09151871 -0.03588635 0.009434268 -0.022638062 0.09756356
0.06972774 0.41360518 -0.02566972 0.0729966

fc3.weight f4 [10, 84]
00000000: 9182 e0bd 96ed 0c3e 13bd 5c3e fe87 c9bc
00000010: 4963 dabd 477e 0bbc f2c5 e7bd 15b9 b4bd
00000020: 0a4a 983e 32d0 e83c c945 a5ba 391e bcbc
00000030: d15d 23be 3bc5 853e eeb5 5f3d 6936 8f3e
00000040: b753 543d 7275 a1be d42d 3c3c 321a 02be
00000050: da91 0ebe bce8 5a3e 9eb4 b1bc 11e5 64be
00000060: a749 c33c 6293 6bbe 1c57 23be 8522 2fbc
00000070: 9531 173b 4ed5 133e 9c08 f23d 41f8 88bc
00000080: 1711 a7bd b8d4 823d a7cc db3d c0fa 143e
00000090: 0532 12be e86b e7bc 09d7 04bc 3c13 fd3d
000000a0: dc00 a03e 4b56 b3bd 2a4a 343e cc4f ea3c
000000b0: 2774 193e e8fe 173e cb70 593d e050 3e3e
000000c0: 4615 e63d e9a9 94bd ed2a 07be 1539 afbe
000000d0: bae2 2a3d 6026 453e fa08 3d3e aaec 243e
000000e0: 43e2 223e ae78 ffbd 76c9 13bd 55eb 17be
000000f0: 001b 18be c269 de3d 5b53 dfbd 55d6 7f3e
00000100: 6e5f 763e 4ea3 793d b38c 203b f633 ccbd
00000110: 9461 163e 8acf a73d 24da 013e 79ba afbc
00000120: 8ca9 01be a0fc a7be 2bea e5bd 5b2b 103e
00000130: 3f03 e83d e692 503e 09ac f3bd e1dc 0d3d
00000140: b717 d3bd 7df3 8f3e 8720 313d 25ee 15be
00000150: 1470 273d 9102 6e3d d2f7 103e d887 9dbd
00000160: 51fc 02bd aad5 663e 530a b6bd 81fc 53be
00000170: 4a69 f53d 5114 303e 6362 a8bd a5a8 2fbe
00000180: 89f2 a53e 47b4 613e 7f87 4abe d7a5 353e
00000190: bbdc 08bd aae2 ed3c 58ed 223e bffa 2cbe
000001a0: be8b 803d d581 4cbe 91bf 64bd 8c61 893d
000001b0: 4d35 babb e2d8 bbbd ef86 43be 0f96 283e
000001c0: ab9b 543e b559 e4bd edec 963c 9d06 0dbd
000001d0: 0164 b73c 1c37 293e f353 40bd 0958 1d3d
000001e0: f35a 2cbe 0071 b33e afbb a3be b848 0dbe
000001f0: 1c5e 563e 503e 603d 6bc4 503e 9c77 2dbe
00000200: 4490 2cbd ab94 06bc 0c73 aebd 3d64 a9bd
00000210: 3461 b9be 4fa9 243e 2760 7b3d 16b1 afbe
00000220: be0f 423d 08b7 5d3c 237a 8dbd 181c 003d
00000230: 7a9d 0a3e 766e be3c 1da3 0cbe 302e 63be
00000240: 85a4 5bbe 7e9a 82bd 65a6 14be 532f a43e
00000250: c536 9b3d 1c28 babd 9b0c 97be fd77 ad3d
00000260: a61f 56be 86fc 8d3d 5b12 733d 8c75 07be
00000270: 996b 2fbe 2db1 5ebb baa2 7a3e b407 febc
00000280: d1d1 a03d c94e 87be 7374 f7bd d1d9 343d
00000290: bbdc 29be 3281 a5be 52a7 2c3e d17a d33d
000002a0: 339c 56bd 5349 6e3d 697a 58bd 4cc0 f0bd
000002b0: 87fd d1bd 1d60 b93c a7e8 0ebd 4ef9 6b3e
000002c0: 60a4 c33c 7845 2bbe 9c95 f83d f3c1 7e3e
000002d0: f508 06be 0e57 41bd 07c2 8f3e 0304 233e
000002e0: 3a12 6fbe b484 993d a179 b5bd 72dd 12be
000002f0: 9daa 633e 02ca 093e a4e1 b23d f5ce 283e
00000300: ddbf 173e d15c a4bd e6e3 cebd 7ec1 13bd
00000310: 95dc 003d 5cb5 faba 9e32 3cbb 12c4 cbbd
00000320: 8e67 d9bc b614 d6bd 7892 25bd be9d 9dbd
00000330: 8bd4 163e a33d 093d ef3d 94bc 54db 8dbd
00000340: c7ac debd 29b4 5e3c c4f9 2d3e 74a7 e33c
00000350: 5373 b1bd 2287 e13d 10a9 a2bc 1aad cfbd
00000360: 2171 b43e d480 263e d46d 4a3c 9d79 493e
00000370: c725 163e 5517 f73d a555 cabd 1f15 25be
00000380: 9614 7bbe bed2 a8bd 89bf 01bd de39 813d
00000390: e1b0 433e 8314 a93d 04ed 943d b2d3 d33d
000003a0: e9e9 c7bb 3ad6 663d fad6 c73d e84b 62bd
000003b0: ffb8 703d 6108 fc3d 9f3f 583e def0 763e
000003c0: c7ad 293e 042b 5d3d c1f6 9cbd 4e06 233e
000003d0: 0e60 02be c218 5e3e 3d69 a3bd d45c a13d
000003e0: 41b9 14be 68ec 783e 070c 8dbd 1d25 443d
000003f0: bc6b a93d cd04 ebbb c71e 43be ac70 853e
-0.109624036 0.13762507 0.21556501 -0.024600979 -0.106634684 -0.008513994 -0.11317052 -0.08824364
0.29743987 0.028419588 -0.0012609299 -0.02296363 -0.15953757 0.26127037 0.05461686 0.279712
0.05183765 -0.31534916 0.011485536 -0.12705305 -0.13922825 0.21377844 -0.02169257 -0.22353007
0.023838831 -0.23005441 -0.15951198 -0.010689382 0.0023070325 0.14436838 0.11818048 -0.01671994
-0.081575565 0.06388229 0.10732394 0.14548779 -0.14276893 -0.028249696 -0.008107909 0.12357184
0.31250656 -0.087566935 0.17606416 0.028602503 0.14985715 0.14843333 0.053086083 0.18585539
0.11234526 -0.0725897 -0.13199969 -0.34223238 0.04172013 0.1925292 0.18460456 0.16105905
0.15906624 -0.1247419 -0.0360808 -0.14835866 -0.1485405 0.108600155 -0.10904571 0.24984105
0.24059841 0.060946755 0.0024497926 -0.09970848 0.1468566 0.08193882 0.1268087 -0.021451222
-0.12662333 -0.32809925 -0.112263046 0.14079039 0.11328744 0.20368537 -0.118980475 0.034634475
-0.103072576 0.28115454 0.04324391 -0.14641626 0.04087837 0.058107916 0.14157036 -0.07691926
-0.03197891 0.22542444 -0.08888688 -0.20701791 0.11982973 0.1719525 -0.08221891 -0.17154177
0.32411602 0.22041427 -0.1977825 0.17739044 -0.03341363 0.029038746 0.15910852 -0.16892527
0.06276654 -0.19971402 -0.055846754 0.06708059 -0.0056826235 -0.091722265 -0.19094442 0.16463493
0.20762508 -0.11149923 0.018423522 -0.034430135 0.022386553 0.16524929 -0.04695506 0.038414035
-0.1683157 0.3504715 -0.3197913 -0.13797271 0.20934337 0.054746926 0.20387428 -0.16940159
-0.04212977 -0.008214156 -0.08518037 -0.08271072 -0.36206973 0.16080211 0.061370995 -0.34314793
0.047378294 0.013532408 -0.06908061 0.031276792 0.13536635 0.023246031 -0.13734098 -0.22185588
-0.21449478 -0.06377123 -0.145166 0.32067356 0.07578806 -0.090896815 -0.29501805 0.084701516
-0.2091051 0.06932931 0.059343677 -0.13228434 -0.17130889 -0.0033980117 0.24476138 -0.031009533
0.07852519 -0.26427296 -0.12082758 0.04415304 -0.16588108 -0.3232513 0.16860703 0.1032616
-0.052395057 0.058175396 -0.052851114 -0.11755428 -0.10253435 0.022628838 -0.034889843 0.23044321
0.023882091 -0.16725719 0.12137911 0.24878673 -0.13089354 -0.047202162 0.2807772 0.15919499
-0.23346797 0.07496014 -0.088610895 -0.14342287 0.22233053 0.13455966 0.08734444 0.16485198
0.14819284 -0.08025516 -0.10102062 -0.0360732 0.031460363 -0.0019127536 -0.0028716694 -0.09949507
-0.026538637 -0.10453169 -0.040422887 -0.076961026 0.14729516 0.033506047 -0.018095938 -0.06926599
-0.108727984 0.013592758 0.1698981 0.027789809 -0.086645745 0.11012103 -0.019856006 -0.101404384
0.3524256 0.16260082 0.012355287 0.19675298 0.14662848 0.12064997 -0.09879617 -0.16121338
-0.24519572 -0.08243321 -0.031676803 0.063098654 0.19110443 0.082558654 0.0727177 0.10343112
-0.0061008823 0.056356646 0.097578004 -0.05524817 0.058770176 0.12306286 0.2111802 0.24115321
0.16570197 0.0539961 -0.07664252 0.15920374 -0.12731954 0.21689132 -0.07979057 0.07879034
-0.14523794 0.24308932 -0.0688706 0.047886956 0.08272502 -0.007172203 -0.1905471 0.26062524

fc3.bias f4 [10]
00000000: 790a d3be f723 06bf 1e05 ffbd 9d45 133f
00000010: 89cc 293f ca35 febc 8505 473e 9de3 a3be
00000020: c129 bb3e 77b9 7abd
-0.41218928 -0.5239863 -0.12452148 0.57528096 0.6632772 -0.031031508 0.194357 -0.32009593
0.36555293 -0.06121203
