example_tests/models/cifar/cifar_net_1.pth (torch, 250887 bytes, 10 tensors)

conv1.weight f4 [6, 3, 5, 5]
0	0x3e7f5b12	0.24937084
1	0x3e60e00d	0.21960469
2	0x3e673153	0.2257741
3	0x3e2fb385	0.17158325
4	0x3e5f5a2c	0.21811742
5	0x3e243c2b	0.16038577
6	0x3d86e905	0.06587414
7	0x3d4e5fab	0.050384205
8	0x3dbc019b	0.09179994
9	0x3e2d676a	0.1693398
10	0x3e500b85	0.20316894
11	0x3cf29788	0.029613271
12	0x3bad46ae	0.0052879667
13	0x3e22fa7f	0.15915869
14	0x3e8419a9	0.25800827
15	0x3d9b6466	0.07587509
16	0xbddda8ee	-0.108232364
17	0xbe290316	-0.16505083
18	0x3e01043c	0.12599272
19	0x3e795993	0.24350576
20	0xb97e276c	-0.00024238013
21	0xbcfd708e	-0.03093746
22	0xbe54bc4d	-0.20774956
23	0x3db9ccb0	0.09072244
24	0x3e954e3a	0.29161245
25	0xbdd95b3e	-0.10613106
26	0xbe488761	-0.19582893
27	0xbe1d26bd	-0.15346809
28	0xbe80b350	-0.25136805
29	0xbe1b10db	-0.15143149
30	0xbd053643	-0.03252245
31	0xbe619457	-0.22029243
32	0xbe5838a6	-0.2111536
33	0xbde1756b	-0.11008724
34	0x3d554456	0.052067123
35	0xbdc24611	-0.0948602
36	0xbe841aac	-0.258016
37	0xbe640abe	-0.22269723
38	0xbe006e56	-0.1254209
39	0x3d797465	0.060902018
40	0xbdb30d93	-0.087428235
41	0xbe515d25	-0.20445688
42	0xbea8be3b	-0.32957634
43	0xbe1ec6b2	-0.15505484
44	0x3e615e86	0.22008714
45	0xbe51fd99	-0.20506896
46	0xbeaaf862	-0.33392626
47	0xbe5eca32	-0.21756819
48	0xbdf8f6e5	-0.121564664
49	0x3e26451a	0.16237298
50	0xbdab9ad2	-0.08379139
51	0xbd75f242	-0.06004549
52	0xbcf0043d	-0.029298896
53	0xbe3831bc	-0.17987722
54	0x3d0dca75	0.034616906
55	0xbd41b5ca	-0.04729251
56	0xbdd3e829	-0.103470154
57	0xbdfad282	-0.122471824
58	0x3da9bc11	0.08287824
59	0x3d89a8bd	0.067216374
60	0x3dae4f52	0.08511223
61	0xbe3ae454	-0.18251163
62	0xbe704acd	-0.23466034
63	0x3d5843c5	0.052799005
64	0x3de77d15	0.113031544
65	0x3d159bb9	0.03652546
66	0xbe1d910d	-0.15387364
67	0xbd8a99a7	-0.06767588
68	0x3d92b48a	0.07163341
69	0x3ece7b2c	0.40328348
70	0xbcde21f5	-0.027115801
71	0xbd4afef4	-0.04955955
72	0xbe33169f	-0.17489098
73	0x3dcc7532	0.09983291
74	0x3e6c0dcf	0.23052143
75	0x3e921a1a	0.2853554
76	0x3cb8bcc1	0.022550942
77	0x3e5d14b8	0.21589935
78	0x3e2636a4	0.16231781
79	0x3e06e316	0.13172564
80	0x3eafdd2a	0.34348422
81	0x3e0e1942	0.13876823
82	0x3e95847b	0.29202637
83	0x3e12c64c	0.14333457
84	0x3e1d3d62	0.15355447
85	0x3d15fc55	0.036617596
86	0x3e08927d	0.13337131
87	0x3e8516a2	0.2599383
88	0x3e292f2f	0.16521905
89	0x3e356bde	0.1771693
90	0x3bac09d5	0.0052501955
91	0xbe3741b3	-0.17896156
92	0xbe156c78	-0.14592159
93	0xbdd2c3d9	-0.10291261
94	0xbe295a72	-0.16538408
95	0xbe5be65c	-0.21474594
96	0xbe991f0c	-0.299065
97	0xbec5d1bf	-0.38636586
98	0xbe7926d0	-0.24331212
99	0xbe74740e	-0.23872396
100	0x3d3ff412	0.046863623
101	0x3d370bd6	0.044689022
102	0x3d01e670	0.031713903
103	0xbe279fe0	-0.16369581
104	0xbdcad968	-0.09904748
105	0x3ce04923	0.027378624
106	0x3c94a84c	0.018146656
107	0x3dd8ecaf	0.10592019
108	0x3e300920	0.17190981
109	0x3e0c52fb	0.1370353
110	0xbdb148a3	-0.086564325
111	0xbd8baecc	-0.06820449
112	0x3e0b2a7f	0.1359043
113	0x3dfcb32b	0.12338861
114	0x3dda250d	0.10651598
115	0xbdb2f0ac	-0.08737311
116	0xbe8fccd9	-0.28085974
117	0xbe9ff0fd	-0.31238547
118	0xbe95301f	-0.29138276
119	0xbe768351	-0.2407353
120	0xbe6cef35	-0.23138125
121	0xbe93dc2f	-0.28878924
122	0xbe1cf96b	-0.1532952
123	0xbe3d2782	-0.18472102
124	0xbe8abd3d	-0.27097502
125	0x3d6c038a	0.057620563
126	0xbe46afce	-0.19403002
127	0xbd24cd4f	-0.04023486
128	0xbdb7b9e8	-0.08971006
129	0xbe011dc9	-0.12609018
130	0x3df3cfdf	0.11904883
131	0x3d941132	0.07229842
132	0x3d6abf52	0.057311364
133	0xbd1d9576	-0.038472615
134	0x3cc3740a	0.023859043
135	0x3e6ed829	0.23324646
136	0x3d984748	0.07435471
137	0x3e6aa925	0.22916086
138	0x3e7b1d4a	0.24522892
139	0x3e278eb4	0.1636303
140	0x3e33b3cd	0.17549057
141	0x3daa4526	0.0831397
142	0xbdacd88c	-0.084397405
143	0x3db01a2f	0.08598744
144	0xbdc2dc44	-0.095146686
145	0x3d87f188	0.06637865
146	0x3c9274ed	0.01787802
147	0x3da3a69a	0.07990761
148	0xbd3418da	-0.043969013
149	0xbd195e10	-0.03744322
150	0xbe44353e	-0.19160935
151	0xbe0fd6f5	-0.14046843
152	0xbe1aa177	-0.15100656
153	0xbdd4d238	-0.103916585
154	0xbe62bcce	-0.22142336
155	0xbe53552f	-0.20637964
156	0xbeb59448	-0.35464692
157	0xbe699163	-0.22809367
158	0xbe9cc64a	-0.30620033
159	0xbe680c3f	-0.22660922
160	0x3cc5d1c0	0.024147868
161	0x3da7fd9b	0.08202668
162	0x3e0d2ce8	0.13786662
163	0x3d797e3f	0.060911413
164	0xbca6544c	-0.020303868
165	0x3c2496b5	0.010045697
166	0x3d941538	0.0723061
167	0x3e116e68	0.14202273
168	0x3d7efe55	0.06225427
169	0x3db1b804	0.08677676
170	0xbd4c35b7	-0.049855914
171	0x3d96f957	0.073717766
172	0x3d8279b8	0.06370872
173	0xbb74669f	-0.0037292612
174	0xbda2910c	-0.07937822
175	0xbc639984	-0.013891581
176	0xbd3782f4	-0.04480262
177	0xbe156ab9	-0.14591493
178	0xbe1a890b	-0.1509134
179	0x3c9f8fb4	0.019477703
180	0xbe4a1729	-0.19735397
181	0xbe1d13da	-0.15339604
182	0xbe0bd4a2	-0.13655332
183	0xbe4d76e6	-0.20064887
184	0xbe41cf23	-0.18926673
185	0x3e09283e	0.13394257
186	0x3e2a1bfc	0.16612238
187	0x3da12305	0.078680076
188	0x3da4aa1d	0.08040259
189	0x3e1b20ce	0.15149233
190	0x3e78ce1a	0.24297372
191	0x3d9b6068	0.075867474
192	0x3ddbe5a6	0.10737161
193	0x3e5829d6	0.21109709
194	0x3dfaeac1	0.12251807
195	0xbd16d9c8	-0.036828786
196	0x3c3ebc07	0.011641509
197	0x3dc51f74	0.0962514
198	0x3e0af596	0.13570246
199	0xbd43319d	-0.047654737
200	0xbdd23c82	-0.10265447
201	0xbb507243	-0.0031806387
202	0xbdc56312	-0.09638037
203	0xbcab2fdc	-0.020896845
204	0x3d38b868	0.04509774
205	0x3b920dc7	0.004457209
206	0xbe5b5545	-0.21419246
207	0xbe329338	-0.17438972
208	0xbc1f993a	-0.009741122
209	0xbd3fb43d	-0.046802748
210	0x3df5640e	0.119819745
211	0x3e298695	0.16555245
212	0x3e40e6a3	0.18837981
213	0x3d2979fb	0.041376095
214	0x3e0f8481	0.1401539
215	0x3e32be93	0.17455511
216	0x3e387612	0.1801379
217	0x3e1b7519	0.15181388
218	0x3e0c7029	0.1371466
219	0x3d6291d4	0.055314854
220	0x3e04ddd4	0.12975246
221	0x3d7acd48	0.061230928
222	0xbc740753	-0.014894324
223	0xbd74fc62	-0.059811004
224	0x3dc29b89	0.09502322
225	0xbc239cbc	-0.009986099
226	0x3d0c22fe	0.03421306
227	0xbc2fc02a	-0.010726968
228	0xbde3163d	-0.11088226
229	0xbe1903a3	-0.14942794
230	0xbd7d1ea8	-0.061796814
231	0x3d223333	0.03959961
232	0x3e91c39f	0.2846956
233	0x3c95a94b	0.018269202
234	0xbe9bb1bf	-0.30409047
235	0xbe2b72b8	-0.1674298
236	0x3d892caa	0.06697972
237	0x3ea65fcf	0.3249497
238	0xbd1b2968	-0.037881285
239	0xbed46c99	-0.41489103
240	0xbd6cb2a8	-0.057787567
241	0x3d2c5c58	0.042080253
242	0x3e8a2777	0.26983234
243	0xbbb78545	-0.0056006038
244	0xbe8b55b6	-0.2721383
245	0x3e1ce1ff	0.15320586
246	0x3e113619	0.14180793
247	0x3da9f1b4	0.08298054
248	0x3d39d6f5	0.045371015
249	0x3d004816	0.031318747
250	0x3b08fd54	0.0020902948
251	0x3c9e1446	0.019296777
252	0x3e146735	0.14492495
253	0x3dd9679b	0.10615464
254	0xbdb94035	-0.0904545
255	0x3c4041b8	0.011734419

conv1.bias f4 [6]
0	0xbe4b9194	-0.19879752
1	0xbec47063	-0.38366994
2	0xbd56f906	-0.05248358
3	0x3cea2536	0.028582197
4	0xbe52e355	-0.20594533
5	0x3e517b0e	0.20457098

conv2.weight f4 [16, 6, 5, 5]
0	0x3e240eb2	0.16021231
1	0x3d69b815	0.05706032
2	0x3d83eab5	0.06441251
3	0x3db9d4dc	0.09073803
4	0x3e154c0c	0.14579791
5	0x3d1fad63	0.038983714
6	0x3da3e60c	0.08002862
7	0xbd9c033a	-0.07617803
8	0x3b8af4c4	0.004240604
9	0x3e5b0149	0.21387209
10	0xbc0042a8	-0.007828392
11	0xbc35e05d	-0.011100856
12	0x3d2af490	0.04173714
13	0x3dce9f61	0.10088993
14	0x3d48ba7a	0.049005963
15	0xbdbe155d	-0.092814185
16	0x3d4a212b	0.049348038
17	0x3c825669	0.015910344
18	0x3de6b933	0.11265793
19	0x3de7b434	0.11313668
20	0xbe0970eb	-0.13421981
21	0xbe14dfca	-0.14538494
22	0xbe52568a	-0.20540825
23	0xbe1dde1f	-0.15416764
24	0xbe4d6efa	-0.20061865
25	0x3d5a610b	0.053315204
26	0xbd92bb49	-0.07164628
27	0x3c9a4b68	0.018834785
28	0x3e03524b	0.12824361
29	0xbd53ce29	-0.05171028
30	0xbcad318b	-0.021141788
31	0xbd098e4a	-0.033582963
32	0x3d94a13e	0.07257317
33	0x3d71724f	0.058946904
34	0xbca7f795	-0.020503798
35	0xbd707769	-0.05870763
36	0x3d99d34e	0.07511006
37	0x3e45435e	0.1926398
38	0xbd8e7d28	-0.069574654
39	0xbde6f94e	-0.1127802
40	0x3bf477ec	0.007460585
41	0x3e189310	0.1489985
42	0x3e179b50	0.14805341
43	0x3cca39a1	0.024685683
44	0xbc239fe7	-0.009986854
45	0x3d098bb1	0.033580486
46	0x3c8e65a2	0.017382447
47	0x3d532dd8	0.051557392
48	0xbd7bd61e	-0.061483495
49	0xbe04c250	-0.1296475
50	0x3c1c04b7	0.0095226085
51	0xbd8b7483	-0.06809332
52	0x3bb94e77	0.0056551057
53	0xbda40fff	-0.080108635
54	0xbde9d080	-0.11416721
55	0xbe27a9fd	-0.16373439
56	0xbe023b6e	-0.12717983
57	0xbb31a9fb	-0.0027109373
58	0xbdef4f26	-0.11685018
59	0xbd393315	-0.04521473
60	0xbb4a8507	-0.0030902044
61	0x3ad4d84d	0.0016238779
62	0xbe046a09	-0.12931074
63	0x3c6875b8	0.014188223
64	0x3ca22ed1	0.019797714
65	0xbd2f59cc	-0.042810246
66	0xbd336b35	-0.043803412
67	0xbdbe1e7a	-0.09283157
68	0x3c2a7792	0.010404484
69	0x3ba6211d	0.0050698654
70	0x3db5ecf6	0.08883087
71	0x3e1e1bf9	0.15440358
72	0x3e51bfe7	0.20483361
73	0x3de757ae	0.112960204
74	0x3aa0ce10	0.0012268443
75	0xbd9bc342	-0.07605602
76	0xbd062df8	-0.032758683
77	0x3bbc6829	0.0057497215
78	0x3de3c23d	0.111210324
79	0x3e37451d	0.17897458
80	0x3c22d8eb	0.009939413
81	0xbd7722ed	-0.060336042
82	0x3dc660eb	0.096864544
83	0x3d738c3e	0.059459917
84	0x3c315aeb	0.010824899
85	0x3dc2bc3c	0.09508559
86	0x3e187ebe	0.14892098
87	0x3df29717	0.11845224
88	0x38ef11ca	0.000113997216
89	0xbddba709	-0.10725219
90	0x3df65f87	0.12029939
91	0x3a5fba57	0.00085345417
92	0xbc24669c	-0.01003423
93	0xbd254139	-0.040345404
94	0xbe7efa62	-0.24900201
95	0xbd136f9a	-0.035995103
96	0xbd98cea3	-0.07461288
97	0xbe1402e6	-0.1445423
98	0xbe57a32a	-0.21058336
99	0xbe2b2a57	-0.1671537
100	0x3ce83388	0.028344885
101	0x3d66c4c8	0.05634001
102	0xbd88c1c8	-0.06677586
103	0xbd8958aa	-0.067063645
104	0x3dafb02a	0.085785225
105	0xbc3720cb	-0.011177252
106	0x3d1b0163	0.03784312
107	0x3dc84301	0.09778405
108	0xbc741692	-0.014897959
109	0x3e57716e	0.21039364
110	0x3c75a93b	0.014993961
111	0x3c8f1d74	0.017470099
112	0x3df22700	0.11823845
113	0x3e59ce15	0.2127002
114	0x3e7ea89b	0.24869005
115	0xbe0c477a	-0.13699141
116	0x3d7a7925	0.06115069
117	0x3e53590f	0.20639442
118	0x3e7e0bc0	0.2480917
119	0x3dae0645	0.084972896
120	0xbd87af01	-0.06625176
121	0x3df3deb3	0.11907711
122	0x3d9a9921	0.07548738
123	0x3dbc9af2	0.09209241
124	0xbcaa6fa2	-0.020805184
125	0xbbcf7de9	-0.0063321483
126	0xbc80942b	-0.015695652
127	0x3d2a0d1e	0.041516416
128	0xbb26b581	-0.0025437775
129	0xbda657de	-0.08122228
130	0xbdd9c1d1	-0.10632671
131	0x3d52a46f	0.051426347
132	0xbc98d6bf	-0.018657086
133	0xbd6a3f65	-0.057189364
134	0xbe08a78a	-0.13345161
135	0xbd93e16b	-0.072207294
136	0xbda57cf3	-0.08080473
137	0xbdc6f4b7	-0.097146444
138	0xbc50c8ca	-0.012743184
139	0xbe15ed15	-0.14641221
140	0x3d0a69ac	0.033792183
141	0xbdc37dc6	-0.09545474
142	0xbdb4ae74	-0.08822337
143	0xbdf91cff	-0.12163734
144	0xbcd5d582	-0.026102785
145	0xbb81faf7	-0.003966685
146	0xbe0a2585	-0.13490875
147	0xbd56069b	-0.052252393
148	0x3a83a5aa	0.0010043879
149	0x3d20514d	0.039140034
150	0xbdbf7ffb	-0.09350582
151	0x3d236e6b	0.039900225
152	0xbd60678a	-0.054786243
153	0xbd2801f0	-0.041017473
154	0xbc88ae03	-0.016684538
155	0xbc90c3bc	-0.017671458
156	0x3c9ae8d9	0.018909859
157	0x3d68f1b0	0.056871116
158	0x3d899e02	0.06719591
159	0x3d4a9470	0.049457967
160	0x3d343b89	0.04400209
161	0x3cab33dd	0.020898754
162	0xbd7be9cd	-0.061502267
163	0xbcc4c85e	-0.024021324
164	0xbdb7df10	-0.08978093
165	0xbd11ecb8	-0.035626143
166	0xbd6f2eb6	-0.058394156
167	0xbc6a393b	-0.014295871
168	0xbdd8cc77	-0.105858736
169	0xbe084c68	-0.13310397
170	0xbda05a77	-0.07829755
171	0xbdc14ef3	-0.094388865
172	0xbdaefa67	-0.08543854
173	0xbdfc801c	-0.123291224
174	0xbd9e80f7	-0.07739442
175	0x3cd61f20	0.026137888
176	0x3d02c2d4	0.031924084
177	0xbc07f206	-0.008297449
178	0xbd093224	-0.033495083
179	0xbd5f73d1	-0.05455381
180	0x3bc53bb2	0.006019079
181	0x3d30b02d	0.043136764
182	0xbac1adca	-0.0014776525
183	0xbd67fbee	-0.056636743
184	0x3c91435f	0.01773232
185	0x3c1311f5	0.008976449
186	0x3d8bb898	0.06822318
187	0xbbffe686	-0.007809463
188	0xbd95b3e6	-0.073097035
189	0x3ca7160b	0.020396253
190	0xbc6af56e	-0.014340742
191	0xbcaef09d	-0.021354968
192	0x3d3c0734	0.045905307
193	0xbd643157	-0.055711117
194	0xbc6c3550	-0.014417008
195	0x3d882b70	0.0664891
196	0xbdad31df	-0.08456778
197	0x3c7b2f94	0.015331168
198	0x3d96c0f8	0.073610246
199	0x3cb80418	0.02246289
200	0xbcdb4193	-0.026764667
201	0xbc6b9729	-0.014379301
202	0xbdd98420	-0.10620904
203	0xbd48e28f	-0.049044188
204	0x3d194797	0.03742179
205	0xbd9cc0e8	-0.076539814
206	0xbd3e2d7c	-0.046430096
207	0x3d9dd489	0.077065535
208	0x3cc7f227	0.02440746
209	0x3d41a6e4	0.0472783
210	0x3db83b64	0.08995703
211	0x3d089e18	0.033353895
212	0xbc5efc0f	-0.0136099
213	0x3d93a304	0.07208827
214	0x3d4bdc81	0.049770836
215	0x3d0bd6e0	0.034140468
216	0x3dd74bda	0.105125144
217	0x3d070723	0.03296579
218	0xbbdac19f	-0.0066759135
219	0x3cc7675d	0.02434128
220	0x3ce9c619	0.028536843
221	0xbcb1d14b	-0.021706244
222	0x3d0daed5	0.03459056
223	0x3ca78f4f	0.020454077
224	0x3d11f2c3	0.035631906
225	0xbdf707ac	-0.1206201
226	0x3c318adb	0.010836328
227	0x3d1437a4	0.036185876
228	0xbd9fac09	-0.07796485
229	0xbd7dd2c5	-0.061968584
230	0x3b39e489	0.0028364977
231	0xbd888eb7	-0.06667846
232	0xbd872e2e	-0.06600605
233	0xbd7fefed	-0.06248467
234	0xbe3d62e4	-0.18494755
235	0xbdc5f73a	-0.09666295
236	0xbe1ffaf5	-0.15623076
237	0xbe408aaf	-0.18802904
238	0xbe3d2eee	-0.18474934
239	0xbde13aee	-0.10997568
240	0xbe0c7770	-0.13717437
241	0xbe43a471	-0.19105698
242	0xbe006468	-0.12538302
243	0xbe34b203	-0.17646031
244	0xbde5ebdd	-0.11226628
245	0xbe0b9f43	-0.13634972
246	0xbd78772a	-0.06066052
247	0xbe16b78c	-0.14718455
248	0xbe07c5f8	-0.13259113
249	0xbdee2627	-0.11628371
250	0x3cf733fd	0.030176157
251	0xbbe91222	-0.0071127573
252	0xbbee1c93	-0.00726659
253	0xbc0d07f8	-0.008607857
254	0x3d311f5c	0.043242797
255	0xbcbb9df4	-0.022902466

conv2.bias f4 [16]
0	0xbebaae00	-0.36460876
1	0x3e93faa0	0.2890215
2	0xbdacc3eb	-0.08435806
3	0xbe705b3a	-0.234723
4	0x3ee2bb28	0.44283414
5	0xbe1094a4	-0.14119202
6	0x3ea7f097	0.32800743
7	0x3cf8e00d	0.030380273
8	0x3de3b1a9	0.1111787
9	0x3e88b246	0.26698512
10	0xbd8f39dd	-0.069934584
11	0xbb8096fe	-0.0039242497
12	0xbec0ab62	-0.37630755
13	0xbccb4968	-0.024815276
14	0xbe535e57	-0.20641457
15	0xbc9428e3	-0.018085903

fc1.weight f4 [120, 400]
0	0xbc244eb1	-0.010028527
1	0xbcd42047	-0.025894297
2	0xbd388739	-0.045050833
3	0xbd692837	-0.056923117
4	0xbb08c78d	-0.0020870895
5	0x3c4b4275	0.012405981
6	0x3c808d41	0.015692355
7	0xbd3097db	-0.04311357
8	0x3c21494e	0.009844137
9	0xbc415677	-0.0118004
10	0x3d6d02c8	0.05786398
11	0xbc14f341	-0.009091199
12	0x3c3c3dcb	0.011489342
13	0x3aa2874c	0.0012399941
14	0x3cea2784	0.028583296
15	0x3d786cba	0.060650565
16	0xbc8bff20	-0.017089427
17	0xbc4e89b8	-0.012606077
18	0xbc769340	-0.015049756
19	0x3ccbd528	0.024881914
20	0x3d94aa15	0.07259003
21	0x3d926fd8	0.07150239
22	0x3b77d45a	0.003781578
23	0x3d626861	0.055275325
24	0x3d7559bf	0.05990004
25	0xbb185a9e	-0.0023247371
26	0xbc5811a5	-0.0131878005
27	0x3c79b0c9	0.015239903
28	0x3d155e2c	0.036466762
29	0x3daf314d	0.08554325
30	0xbd05442a	-0.03253571
31	0xbcbe0c98	-0.023199365
32	0xbbee4350	-0.007271208
33	0xbd488781	-0.04895735
34	0xbcb80a6d	-0.022465909
35	0xbcd94517	-0.026522202
36	0x3bc2f736	0.00594988
37	0xbc80eaab	-0.015736898
38	0xbd69c4a0	-0.05707228
39	0xbd239bb7	-0.039943423
40	0x3c86ee04	0.016470917
41	0x3ca67668	0.020320132
42	0x3d6d24d2	0.057896443
43	0xbc35b8b0	-0.011091396
44	0x3c088a62	0.008333774
45	0xbd195a4a	-0.037439622
46	0x3d76195f	0.06008279
47	0x3c6814a7	0.01416508
48	0xbc338d1b	-0.010958935
49	0xbd8f812e	-0.07007061
50	0xb95f9186	-0.00021321149
51	0x3d9a63ca	0.075385645
52	0xbc9757cf	-0.018474488
53	0x3cda0d41	0.026617648
54	0x3d740d53	0.05958302
55	0x3d4436ca	0.047903813
56	0x3d33da11	0.043909136
57	0xbd009188	-0.03138879
58	0xbb520e86	-0.0032052114
59	0x3cf8ac74	0.03035567
60	0x3bbe0d88	0.005799953
61	0x3d10bf11	0.035338465
62	0xbbd177b7	-0.006392445
63	0x3c79126a	0.015202144
64	0xbce9480c	-0.028476737
65	0xbc4e13d0	-0.012577966
66	0x3cea703d	0.028617973
67	0xbd0bc2bc	-0.03412126
68	0xbcb75f2a	-0.022384245
69	0x3cd954aa	0.026529629
70	0xbc7e5e94	-0.015525479
71	0xbcdd6e41	-0.027030112
72	0xbd4d271b	-0.050086122
73	0xbcc0aed6	-0.023520868
74	0xbd440161	-0.047852878
75	0xbc893d7e	-0.016752955
76	0xba169f7d	-0.00057458115
77	0xbd5ba17c	-0.0536208
78	0x3c6dfcf1	0.014525638
79	0xbcb7a7b6	-0.022418838
80	0xbccdec11	-0.02513698
81	0x3ce37dfa	0.027770031
82	0xbb3a0e1d	-0.002838976
83	0xbd09ba7a	-0.033625104
84	0x3d7b648b	0.061375182
85	0x3d3fbcd2	0.046810932
86	0xbc081109	-0.008304843
87	0x3d4d3854	0.050102547
88	0xbc055b45	-0.008139436
89	0x3ca1ef6f	0.019767491
90	0x3d7f22ba	0.062288977
91	0x3c507e22	0.012725385
92	0x3d55601f	0.05209362
93	0x3d2398a7	0.039940502
94	0x3d401164	0.046891585
95	0x3d824ae4	0.063619405
96	0xbd4d79cd	-0.050164986
97	0xbcdcf30a	-0.026971359
98	0xbc1eaa3a	-0.00968414
99	0xbd01ba3b	-0.031671744
100	0xbd1559b9	-0.03646252
101	0x3d559004	0.052139297
102	0xbd09ca06	-0.03363993
103	0xbd81570d	-0.06315432
104	0x3c71f1d5	0.01476713
105	0xbd014368	-0.031558424
106	0x3cc69752	0.024242077
107	0x3c6fc88c	0.014635216
108	0x3d092ea9	0.033491764
109	0x3d3f79d8	0.04674706
110	0xbd137718	-0.03600225
111	0x3d99bb69	0.07506449
112	0x3d0b561e	0.034017675
113	0x3cc1e6e1	0.023669662
114	0x3ac2000c	0.0014801039
115	0xbcdf7dc6	-0.027281653
116	0xbcc4ec78	-0.024038538
117	0xbd0adf52	-0.03390438
118	0x3c012416	0.007882139
119	0xbcf49c1a	-0.029859591
120	0xbd8009c0	-0.0625186
121	0xbd6a08a3	-0.057137143
122	0x3d09799c	0.03356324
123	0xbb95086e	-0.004548124
124	0xbc92728f	-0.017876891
125	0x3e17dd38	0.14830482
126	0x3d9f78c5	0.07786707
127	0x3de40ad2	0.11134876
128	0x3d9b819a	0.07593079
129	0x3d6d0526	0.057866238
130	0x3db3a5f0	0.087718844
131	0x3bad97d3	0.00529764
132	0x3c9a0502	0.018801216
133	0x3ccd514f	0.025063185
134	0x3d2de1b2	0.042451568
135	0xbb1b51aa	-0.0023699799
136	0x3d0d5383	0.03450347
137	0xbc44d860	-0.012014478
138	0xbc7f0cbb	-0.015567
139	0x3c44240e	0.011971487
140	0xbb8333cc	-0.0040039774
141	0xbd24207d	-0.040070046
142	0x3c692af4	0.014231432
143	0xbc77caa4	-0.015123997
144	0xbd2ad981	-0.041711334
145	0xbdbcab59	-0.092123695
146	0xbdc84da1	-0.097804315
147	0xbdb5be2d	-0.08874164
148	0xbce2ae0a	-0.027670879
149	0xbd3c8e0e	-0.04603391
150	0xbc2f2f5d	-0.010692445
151	0xbd4c3369	-0.049853716
152	0x3c3a7506	0.01138044
153	0xbce0d9bb	-0.027447572
154	0x39f1fc29	0.00046154976
155	0xbb85b5b8	-0.0040805005
156	0x3c8df043	0.01732648
157	0x3d57ec06	0.052715324
158	0x3b67016b	0.0035248648
159	0xbcb634fb	-0.02224206
160	0x3d47f4a4	0.04881729
161	0x3bddc63e	0.006768017
162	0x3ccea9a1	0.02522737
163	0x3d66520f	0.0562306
164	0x3bd8e6df	0.006619319
165	0x3d123482	0.035694607
166	0xbcbede0f	-0.023299245
167	0x3d79a178	0.060945004
168	0xbc6d8770	-0.014497623
169	0x3c84edaf	0.016226618
170	0x3c57b1dd	0.0131649645
171	0x3c6eebe1	0.014582605
172	0xbce36cae	-0.027761783
173	0xbd5cde11	-0.053922717
174	0xbc582a9b	-0.013193752
175	0x3cf32219	0.029679345
176	0x3c98b61e	0.018641528
177	0x3d8b0af9	0.06789202
178	0x3ceb09e4	0.02869124
179	0x3d863729	0.0655349
180	0x3d487329	0.04893795
181	0xbc8245d9	-0.015902447
182	0xbcc4ae0c	-0.024008773
183	0x3d5faf96	0.05461081
184	0xbc2eb263	-0.010662648
185	0xbd269c31	-0.0406763
186	0xbd05a402	-0.032627113
187	0xbd56734b	-0.052356046
188	0x3c8acf2f	0.016944496
189	0x3cd64eb5	0.026160577
190	0xbd71ec74	-0.05906339
191	0xbcd2e4a0	-0.025743783
192	0xbbbc72be	-0.005750983
193	0x3c916b42	0.01775134
194	0xbd0c2969	-0.03421918
195	0xbd7322ef	-0.059359487
196	0xbd907a43	-0.070545696
197	0xbda73ce3	-0.0816591
198	0xbd6d14af	-0.057881054
199	0xbd440ac9	-0.047861848
200	0x3be16468	0.0068784244
201	0x3cbe97b4	0.023265697
202	0xbb264fd4	-0.002537717
203	0x3c6abfee	0.014327986
204	0xbc84ec4c	-0.016225956
205	0xbca58db2	-0.020209167
206	0x3cb97c98	0.022642419
207	0x3d061f02	0.032744415
208	0x3c0be914	0.008539457
209	0xba9314eb	-0.0011221444
210	0xbd617440	-0.055042505
211	0xbd614bd0	-0.05500394
212	0x3c8c5523	0.01713044
213	0xbd8d619c	-0.06903383
214	0xbcf43740	-0.029811502
215	0xbdbadcb2	-0.091241255
216	0xbd029c08	-0.031887084
217	0x3b95e72a	0.004574676
218	0x3ba1eda7	0.0049416604
219	0xbd97248e	-0.07380019
220	0xbdadb599	-0.08481903
221	0xbd982a42	-0.07429935
222	0xbd9256b7	-0.07145446
223	0xbd1c5f82	-0.03817702
224	0xbd8d115d	-0.068880774
225	0x3d2bf899	0.041985128
226	0x3b9f71e5	0.004865872
227	0xbbc30c9d	-0.0059524314
228	0x3d19757e	0.037465565
229	0x3d1582b7	0.036501613
230	0xbce7ad6b	-0.028280934
231	0x3cc9767e	0.024592634
232	0xbd7c2132	-0.061555095
233	0xbca93520	-0.020655215
234	0xbbbeecde	-0.0058265766
235	0x3b86077d	0.004090248
236	0x3c44abb8	0.012003832
237	0xbd14ecdb	-0.036358695
238	0x3d409447	0.04701641
239	0xbb4ccf7f	-0.0031251607
240	0xbb564fc4	-0.0032701353
241	0x3d7b5a80	0.061365604
242	0x3da77076	0.08175747
243	0x3dac5f9c	0.084166735
244	0x3d0f6a78	0.035013646
245	0xbba65c22	-0.005076901
246	0xbc9a7743	-0.018855697
247	0x3d63e2ea	0.055636324
248	0xbbaba4c0	-0.0052381456
249	0x3cf0f97f	0.029415844
250	0x3c96ebea	0.01842304
251	0x3d397018	0.045272917
252	0xbc841980	-0.01612544
253	0x3c35f42e	0.01110558
254	0xbd15c36c	-0.036563322
255	0x3d133c54	0.035946205

fc1.bias f4 [120]
0	0x3cf885e9	0.03033729
1	0x3c5111a9	0.012760558
2	0xbc9840e9	-0.01858564
3	0xbd64a550	-0.055821717
4	0x3d0a6b10	0.03379351
5	0x3d491558	0.04909262
6	0xbd2f8179	-0.042848084
7	0x3c191b1a	0.00934484
8	0x3d967b4a	0.07347734
9	0xbd2edc2c	-0.04269044
10	0x3d0132a1	0.031542424
11	0x3ca9719b	0.020684054
12	0xbdd653dd	-0.104652144
13	0xbb9fc5b3	-0.0048758625
14	0x3d181e8c	0.037138507
15	0x3bafa120	0.005359784
16	0x3ce0f367	0.027459813
17	0xbc20e61b	-0.009820486
18	0xbc9ad9aa	-0.018902618
19	0x3ced8aa9	0.028996782
20	0xbd48ec2f	-0.049053367
21	0xbd26fe8c	-0.0407701
22	0x3c8e15cf	0.017344384
23	0x3d211d2e	0.03933447
24	0x3d03453e	0.032048456
25	0xbcf0b371	-0.02938244
26	0x3d8d0429	0.06885559
27	0x3c9e0ad5	0.019292274
28	0xbbcdf715	-0.006285558
29	0xbda35310	-0.07974827
30	0xbd59d0e9	-0.053177748
31	0xbba7216b	-0.0051004193
32	0x3cc8b22d	0.024499023
33	0xbd23ed1d	-0.04002105
34	0xbd096b03	-0.03354932
35	0xbd31bb8a	-0.04339174
36	0xbcfd77e0	-0.03094095
37	0x3d3f065a	0.046636917
38	0xbd206156	-0.039155327
39	0x3cdf0670	0.02722475
40	0x3b7fac42	0.0039012586
41	0x3d5bca4a	0.053659715
42	0x3ddb40a8	0.107056916
43	0xbd40960b	-0.047018092
44	0xbd236d15	-0.03989895
45	0x3cef0e75	0.029181698
46	0x3cfe3ec2	0.031035785
47	0x3cc6eb4d	0.024282122
48	0x3dbbe5f6	0.09174721
49	0xbc15424c	-0.009110045
50	0x3cb59315	0.02216486
51	0xbcade0ee	-0.021225419
52	0x3da0075f	0.07813906
53	0x3d94b416	0.07260911
54	0x3c7f63a1	0.015587718
55	0x3e1c55c9	0.152671
56	0xbcb44084	-0.02200342
57	0x3c00fda0	0.007872969
58	0xbbbb35b2	-0.005713188
59	0x3dd12e91	0.1021396
60	0xbb41c430	-0.00295664
61	0x3b93aaf3	0.0045064627
62	0xbd58030c	-0.05273728
63	0xbcf6cabe	-0.030125972
64	0x3c3ac7e8	0.0114002
65	0x3d46f8ca	0.048577107
66	0x39b51d4e	0.00034544844
67	0xbd4409f0	-0.04786104
68	0x3bfa9b31	0.007647895
69	0x3c8bafef	0.017051665
70	0x3df1c95e	0.11805986
71	0xbdb6f85e	-0.08934091
72	0x3decb302	0.115575805
73	0x3d1d2d1b	0.038373094
74	0xbd680890	-0.05664879
75	0x3defaf04	0.117033035
76	0x3dad6749	0.08466966
77	0x3dc4dbc2	0.09612228
78	0x3e21998c	0.1578123
79	0x3de3eed8	0.1112954
80	0xbd2ff53e	-0.04295849
81	0xbd3b14b8	-0.045674056
82	0x3dbda728	0.09260398
83	0xbaf03076	-0.0018324989
84	0xbc8795aa	-0.016550858
85	0xbcca3979	-0.024685608
86	0x3c835b88	0.016034856
87	0xbb5c7fb5	-0.0033645455
88	0x3dd43d16	0.10363214
89	0x3d118871	0.03553051
90	0x3d451712	0.048117705
91	0xbd8f5d96	-0.07000272
92	0xbd8d57e8	-0.069015324
93	0xbd4344bd	-0.047672976
94	0xbd7c2c0b	-0.06156544
95	0x3b167380	0.0022957027
96	0x3b93e4a8	0.004513342
97	0xbccc3da5	-0.024931738
98	0x3d97b800	0.07408142
99	0x3e045ffe	0.12927243
100	0xbd0c3b7d	-0.03423642
101	0xbd825726	-0.063642785
102	0x3e157736	0.14596257
103	0x3d496f1c	0.049178228
104	0x3e02713f	0.12738512
105	0x3b808ca4	0.0039230157
106	0x3b6c5d29	0.003606627
107	0xbd3881ae	-0.045045547
108	0xbc0b54ce	-0.008504106
109	0x3d6afc9b	0.05736981
110	0x3dad2e00	0.084560394
111	0xbceabb1c	-0.028653674
112	0xbd142cee	-0.03617566
113	0x3e20487f	0.15652655
114	0xbcd110f6	-0.025520783
115	0xbca3a039	-0.019973861
116	0xbcbf30d3	-0.02333871
117	0xbd92d8bb	-0.07170244
118	0x3c3fde47	0.01171071
119	0x3d8b7368	0.06809121

fc2.weight f4 [84, 120]
0	0xbde92bac	-0.11385283
1	0xbdc1922a	-0.09451707
2	0x3d43035c	0.047610626
3	0xbd96e276	-0.07367413
4	0x3d3db596	0.046315752
5	0xbd343a0e	-0.044000678
6	0xbd66a784	-0.0563121
7	0x3da8080a	0.08204658
8	0x3c8add8a	0.016951341
9	0x3d8104fc	0.06299779
10	0xbb3b44e5	-0.0028575
11	0x3ceb0949	0.028690951
12	0xbd232a7c	-0.039835438
13	0x3c87f957	0.016598387
14	0xbda4338b	-0.080176435
15	0xbdb00b5c	-0.08595917
16	0xbdbb3c1c	-0.09142324
17	0x3d81961f	0.063274615
18	0xbdcfac52	-0.10140289
19	0xbd9ad77b	-0.07560631
20	0xbc80c955	-0.015721003
21	0x3b6ec93e	0.0036435868
22	0xbd10dda1	-0.03536761
23	0x3b9e659e	0.004833891
24	0xbcf5f5df	-0.030024467
25	0xbdaf6c5f	-0.08565592
26	0xbdd1ba0c	-0.10240564
27	0x3d856e0d	0.06515131
28	0x3dd93859	0.106064506
29	0xbdf1737f	-0.11789607
30	0xbdb8c7d0	-0.09022486
31	0xbd8991fe	-0.06717299
32	0xbd0c11f0	-0.034196794
33	0x3d7d1a81	0.061792854
34	0xbd295eb2	-0.041350074
35	0x3da4bedd	0.08044217
36	0xbd9e4950	-0.07728827
37	0x3cc26abf	0.023732541
38	0x3bdb8fe5	0.006700503
39	0x3c81bcbc	0.015837066
40	0x3c8b6888	0.017017618
41	0xbdc258a6	-0.094895646
42	0x3db9640f	0.09052288
43	0x3cf7a27f	0.030228851
44	0xbdd31fbb	-0.103087865
45	0x3d46e6c1	0.048559908
46	0x3d709886	0.058739208
47	0x3d919d7d	0.07110117
48	0x3e2707fe	0.16311643
49	0xbd5a3421	-0.05327237
50	0x3cf39123	0.029732293
51	0xbd005e72	-0.03134007
52	0x3d27b188	0.04094079
53	0x3de67ad1	0.11253894
54	0x3d8ca53e	0.06867455
55	0x3d0eb6f8	0.03484246
56	0x3db40cb2	0.08791484
57	0xbcee773c	-0.02910959
58	0x3c6a29c3	0.014292183
59	0xbbac4927	-0.005257744
60	0xbc433e36	-0.011916688
61	0x3c594892	0.013261931
62	0xbd0030ee	-0.031296663
63	0xbd4a50c5	-0.049393434
64	0x3deb6ec2	0.11495735
65	0xbc774aea	-0.0150935445
66	0xbd52d015	-0.051467974
67	0xbd2229ca	-0.039590634
68	0x3d7f01f1	0.06225771
69	0x3ccb6743	0.024829512
70	0x3d33bd2f	0.04388159
71	0x3da6f376	0.08151905
72	0x3d2eb371	0.042651597
73	0x3c3e12bf	0.011601149
74	0xbd626a5e	-0.05527722
75	0xbd3ca39c	-0.046054468
76	0xbdc120e2	-0.094301
77	0x3e0f2253	0.13977937
78	0x3c0af05b	0.008480157
79	0x3dc8407d	0.09777925
80	0xbc13f93c	-0.00903159
81	0x3dc10d38	0.094263494
82	0x3ceb6793	0.028735911
83	0xbd99c240	-0.07507753
84	0xbdab4c4c	-0.08364162
85	0xbcd25ed9	-0.025679993
86	0xbd857cff	-0.06517982
87	0x3c327a1b	0.01089337
88	0x3d754551	0.05988056
89	0x3d7abced	0.06121533
90	0x3d40fbc8	0.047115117
91	0xbdedff27	-0.11620932
92	0xbd9de313	-0.077093266
93	0x3c6d9ec9	0.014503189
94	0x3d091eb6	0.033476554
95	0x3de079d6	0.10960738
96	0x3ca76f95	0.020438949
97	0x3dba04fe	0.090829834
98	0xbcda6c0d	-0.02666285
99	0x3da01db8	0.078181684
100	0x3dbfeb67	0.09371071
101	0x3d19bd67	0.037534144
102	0x3d54369f	0.051809903
103	0xbd593760	-0.053031325
104	0x3d8a81b1	0.06763018
105	0xbd9ffc68	-0.078118145
106	0x3d3366fb	0.04379938
107	0xbdb7ff5c	-0.08984253
108	0x3c152e5e	0.009105293
109	0x3cd76e81	0.02629781
110	0xbb767fa4	-0.00376127
111	0xbc2b3816	-0.010450384
112	0x3d203c68	0.039120108
113	0x3deb4259	0.11487264
114	0x3cf5d509	0.03000881
115	0x3c9bb7ef	0.019008605
116	0x3c5cb428	0.013470687
117	0xbdecc80a	-0.11561592
118	0xbdbec1c7	-0.09314304
119	0xbd55e377	-0.05221888
120	0xbd960cd8	-0.073266685
121	0xbdba4921	-0.090959795
122	0x3d61410d	0.054993678
123	0xbc1032f4	-0.008801211
124	0x3d033b4d	0.032038976
125	0xbd371a11	-0.044702593
126	0x3de05dce	0.10955392
127	0x3d9ae3f8	0.07563013
128	0xbd09da68	-0.033655554
129	0x3daacadf	0.08339476
130	0xbdc1297d	-0.094317414
131	0x3d60da7e	0.05489587
132	0x3dd4d113	0.1039144
133	0xbc10256f	-0.008797987
134	0x3dc2477c	0.09486291
135	0x3b339f2e	0.002740811
136	0x3d804b92	0.06264414
137	0xbda36c52	-0.07979645
138	0x3d0c0a32	0.03418941
139	0x3d77b396	0.060474
140	0xbda5547f	-0.08072757
141	0x3da4ddb8	0.08050102
142	0xbdc370a2	-0.095429674
143	0x3d3818db	0.04494558
144	0xbd6539df	-0.055963393
145	0x3d8af808	0.067855895
146	0xbdf92054	-0.12164369
147	0xbd96ca17	-0.07362764
148	0x3cff149f	0.031137763
149	0xbd65953f	-0.056050535
150	0xbd812064	-0.06305006
151	0x3d95a609	0.07307059
152	0xbdbe3597	-0.09287565
153	0x3d97354d	0.07383213
154	0xbd543423	-0.051807534
155	0x3e1d7d42	0.15379813
156	0x3c988e3c	0.01862251
157	0xbbd7bc67	-0.0065837386
158	0x3d63a5ff	0.055578228
159	0xbc389df4	-0.011268128
160	0xbc91f177	-0.017815335
161	0x3d466b05	0.048441906
162	0x3d892697	0.066968136
163	0xbc766b4a	-0.015040228
164	0xbd5850d5	-0.052811462
165	0xbb96815a	-0.0045930566
166	0x3c966a5a	0.01836126
167	0xbd72138c	-0.059100673
168	0x3c4856b7	0.012227706
169	0x3c92f94c	0.01794114
170	0xbc397d2b	-0.011321346
171	0x3c8a77ee	0.01690289
172	0x3db57f6e	0.08862196
173	0x3d4312e3	0.047625434
174	0xbdee20b9	-0.11627335
175	0xbda69c2b	-0.081352554
176	0x3db26faa	0.087127045
177	0x3d1996ce	0.037497334
178	0xbd248068	-0.04016152
179	0x3cc1b1d2	0.023644362
180	0x3cb6f03c	0.02233135
181	0x3d342b7a	0.043986775
182	0xbd55d3a7	-0.0522038
183	0xbd2aaa65	-0.041666407
184	0x3df221d2	0.11822857
185	0x3de7fe36	0.11327784
186	0x3c57d2c5	0.01317281
187	0xbd582ced	-0.05277722
188	0xbd4e925a	-0.05043254
189	0xbd7a1efd	-0.06106471
190	0xbdc638df	-0.09678816
191	0x3dc5e693	0.09663119
192	0x3d8095bf	0.06278562
193	0xba24d808	-0.00062882947
194	0xbd82310e	-0.06357013
195	0x3dd21864	0.102585584
196	0xbd830893	-0.0639812
197	0x3dfd041a	0.12354298
198	0xbca8f17d	-0.020622963
199	0x3e0d0677	0.13771997
200	0xbd48e6b2	-0.049048133
201	0xbdbd8228	-0.09253341
202	0x3cee8147	0.029114379
203	0xbca98eab	-0.020697912
204	0xbd52746c	-0.05138056
205	0x3d8e6ad6	0.06953971
206	0xbd49480f	-0.049140986
207	0xbe03c686	-0.128687
208	0x3d1e617e	0.038667195
209	0x3e020680	0.12697792
210	0x3d52f91f	0.05150711
211	0xbd5ee282	-0.054415233
212	0xbe007a69	-0.12546696
213	0xbdc5df2a	-0.09661706
214	0xbca525ae	-0.020159569
215	0x3d9d3975	0.07676975
216	0xbcee2e7c	-0.0290749
217	0x3d27e2f4	0.040987924
218	0x3cd187ef	0.025577514
219	0xbd3b68f1	-0.045754377
220	0xbcd9ff50	-0.026611
221	0xbddc08a9	-0.10743839
222	0x3c7ea50a	0.015542278
223	0xbd48357c	-0.04887913
224	0x3d29511f	0.04133713
225	0xbdbc30f6	-0.09189026
226	0x3d6857e8	0.05672446
227	0x3bdb5192	0.0066930735
228	0x3ca4fc48	0.020139828
229	0xbbf500a8	-0.007476885
230	0x3d5fc94b	0.054635327
231	0x3d7dc540	0.06195569
232	0xbde93de4	-0.11388758
233	0x3d823af7	0.06358903
234	0x3dacd927	0.08439856
235	0x3d26ee77	0.04075476
236	0xbc95de75	-0.018294552
237	0x3db2d24d	0.08731518
238	0xbd04f94d	-0.032464314
239	0x3da6258a	0.08112629
240	0x3d9f5a97	0.077809505
241	0x3e35db81	0.17759515
242	0xbd9f6465	-0.077828206
243	0x3d9804e9	0.074228115
244	0xbd0d739e	-0.03453409
245	0x3dcb96e3	0.09940889
246	0xbdcf25a8	-0.10114604
247	0x3d120bc9	0.03565577
248	0x3e0023cd	0.12513657
249	0xbd9556fa	-0.0729198
250	0xbc798717	-0.015229962
251	0xbd2ce7a4	-0.042213097
252	0xbdb35af6	-0.08757584
253	0x3c99662e	0.01872548
254	0x3d7bd49c	0.061482057
255	0x3b7a3e57	0.003818413

fc2.bias f4 [84]
0	0x3e2675b8	0.16255844
1	0x3bcd633e	0.006267934
2	0x3e5a46b9	0.21316041
3	0x3d958e57	0.0730254
4	0xbb7163eb	-0.0036833237
5	0x3e13dd59	0.14439906
6	0xbd603078	-0.054733723
7	0x3e0cc837	0.13748251
8	0x3d9f52be	0.07779454
9	0x3e422af8	0.18961704
10	0x3da25e80	0.07928181
11	0x3e3721e7	0.17884026
12	0xbd95876a	-0.07301219
13	0x3db84dfd	0.0899925
14	0xbd4851eb	-0.048906248
15	0x3c851307	0.016244425
16	0x3d5cab96	0.053874575
17	0xbc9a4839	-0.018833267
18	0xbe62b44a	-0.22139087
19	0x3d35cee5	0.044386763
20	0xbd00b491	-0.0314222
21	0x3bbd9c79	0.0057864753
22	0xbd9a307b	-0.07528778
23	0xbdc603ea	-0.09668715
24	0x3dc5e747	0.09663253
25	0xbdc15032	-0.09439124
26	0x3cb0a3ab	0.021562418
27	0x3e757ca5	0.2397333
28	0xbd9e80ca	-0.07739408
29	0x3d3a803d	0.045532454
30	0x3e65a69d	0.22426839
31	0xbc9ac502	-0.018892769
32	0xbca8b16d	-0.020592416
33	0x3dcfe34b	0.101507746
34	0x3a94f6f0	0.0011365097
35	0xbd8a30a5	-0.067475595
36	0xbc9b5c53	-0.018964922
37	0x3d27f266	0.041002654
38	0xbcf2f795	-0.029659072
39	0xbcda50fe	-0.026649948
40	0xbdb899be	-0.09013699
41	0x3d9b0ad8	0.07570428
42	0xbca2e385	-0.01988388
43	0xbd65967c	-0.056051716
44	0xbd69cb47	-0.057078626
45	0x3ea8f57f	0.329998
46	0xbdbd423e	-0.0924115
47	0xbd80328c	-0.06259641
48	0xbd3c5930	-0.045983493
49	0xbd3a625e	-0.045503967
50	0xbbeca9d0	-0.0072223917
51	0x3e5ae53a	0.21376505
52	0x3def4898	0.11683768
53	0xbc90c7fd	-0.017673487
54	0x3e131802	0.14364627
55	0x3d30d4ee	0.043171816
56	0x3d59145e	0.05299794
57	0xbd6fa62f	-0.058508094
58	0x3cb1d333	0.021707153
59	0xbd230a87	-0.03980496
60	0xbda38085	-0.079834975
61	0x3b8160df	0.0039483155
62	0x3df690e3	0.12039354
63	0x3dacbfda	0.0843503
64	0x3e25601f	0.16149949
65	0xbd1a2ce0	-0.037640452
66	0xbccead15	-0.025229016
67	0x3c8b55c0	0.017008662
68	0x3c0c74cf	0.008572771
69	0x3d19dcee	0.03756421
70	0x3d4ce343	0.05002142
71	0xbc9d5f69	-0.019210534
72	0xbda4f61e	-0.08054756
73	0x3cec8799	0.028873252
74	0xbd089c21	-0.03335202
75	0x3d12a245	0.035799284
76	0xbd110eca	-0.035414495
77	0xbd573732	-0.052542873
78	0x398e30f3	0.0002712082
79	0x3e8520f5	0.26001707
80	0x3e280b81	0.16410638
81	0x3dcce1f6	0.10004036
82	0xb959df39	-0.0002077789
83	0x3d94b8f8	0.072618425

fc3.weight f4 [10, 84]
0	0x3d31ff6a	0.043456472
1	0xbd6c37f6	-0.057670556
2	0x3e337f83	0.1752911
3	0x3e480165	0.19531782
4	0xbe1e3bf7	-0.15452562
5	0xbe567ab3	-0.20945244
6	0xbd310dc3	-0.043226015
7	0xbd6d6289	-0.0579553
8	0xbdc4c185	-0.096072234
9	0xbe1570cd	-0.14593811
10	0x3bbd030c	0.0057681855
11	0x3e8ca266	0.2746765
12	0xbc8feb92	-0.017568383
13	0x3db32aff	0.08748435
14	0x3d84b563	0.06479909
15	0x3da0f1c2	0.07858612
16	0x3e03d0ab	0.1287257
17	0x3cc0390e	0.023464706
18	0xbd57fda9	-0.052732144
19	0x3ddf110c	0.10891923
20	0x3da4be99	0.08044166
21	0xbbb4635a	-0.0055050077
22	0xbe244763	-0.16042857
23	0xbd05726d	-0.032579828
24	0x3d7052a5	0.058672566
25	0x3e1fe3de	0.15614268
26	0xb9e4fd50	-0.0004367628
27	0xbe26807f	-0.16259955
28	0x3ddbb2fb	0.10727497
29	0xbce9f234	-0.028557874
30	0xbde2e894	-0.11079517
31	0x3cf05dea	0.029341657
32	0x3c238798	0.009981059
33	0x3defe617	0.11713808
34	0x3e5f36b4	0.21798211
35	0xbdd3d899	-0.10344047
36	0x3dcd8a48	0.10036141
37	0x3db3e077	0.08783048
38	0xbc030a5f	-0.007998078
39	0xbd1e8b44	-0.038707033
40	0x3d215e45	0.039396543
41	0xbd90521b	-0.070469104
42	0x3ddcd320	0.107824564
43	0xbc81ad9c	-0.015829854
44	0x3e1b2b43	0.15153222
45	0x3e1fbba5	0.15598924
46	0xbca78f1b	-0.02045398
47	0xbb983a48	-0.0046456195
48	0xbd96eeab	-0.07369741
49	0xbd880377	-0.06641286
50	0x3e13b861	0.14425804
51	0x3d06b30a	0.03288559
52	0xbe295334	-0.16535646
53	0xbc4c35f6	-0.012464037
54	0xbe74a320	-0.23890352
55	0x3de27638	0.11057705
56	0x3e0f620b	0.14002244
57	0x3dc26ae5	0.09493045
58	0x3bcbdd8e	0.0062214797
59	0x3be57e86	0.007003608
60	0x3d785382	0.060626514
61	0xbd78167d	-0.06056832
62	0x3e0eb158	0.13934839
63	0xbd21349d	-0.039356817
64	0x3e058159	0.13037623
65	0xbdde9942	-0.10869075
66	0x3d964d52	0.073389664
67	0x3e3db9bc	0.18527883
68	0xbdceceab	-0.100980125
69	0xbdc519c0	-0.09624052
70	0xbe15f14f	-0.14642833
71	0x3e0a0050	0.13476682
72	0x3e0d5d04	0.13805014
73	0x3dffa8f0	0.12483394
74	0x3c892b63	0.016744321
75	0xbd1058d4	-0.035240963
76	0x3e0f190d	0.139744
77	0x3d497084	0.04917957
78	0xbe045842	-0.12924293
79	0xbe4f146d	-0.20222636
80	0x3e5605d7	0.20900665
81	0x3c9e2871	0.019306393
82	0x3c738ccc	0.014865112
83	0xbd89af28	-0.067228615
84	0x3e07f8ac	0.13278455
85	0x3e745232	0.2385948
86	0xbe66fadf	-0.22556637
87	0x3db9f207	0.09079366
88	0xbe464c95	-0.19365151
89	0xbd3aa9ee	-0.045572214
90	0xbd98b6ff	-0.07456779
91	0xbe9590e1	-0.29212096
92	0xbd134a8e	-0.035959773
93	0xbe304072	-0.17212084
94	0xbe15c0f5	-0.14624389
95	0x3de3a8bd	0.11116169
96	0x3e6a7476	0.22895989
97	0x3cdf11c2	0.027230147
98	0xbd791c84	-0.06081821
99	0xbdb00afe	-0.085958466
100	0x3e955357	0.29165146
101	0xbdc1a472	-0.094551936
102	0x3e740eb5	0.23833735
103	0x3d93540f	0.07193767
104	0x3e6176e9	0.22018017
105	0xbde5c266	-0.11218719
106	0x3dd47f1b	0.10375806
107	0x3d2297d9	0.039695594
108	0x3dd25c86	0.10271554
109	0xbcbd4735	-0.023105243
110	0x3c81112d	0.01575526
111	0x3d27af54	0.04093869
112	0x3e022d60	0.12712622
113	0x3b40b132	0.0029402492
114	0xbc621be1	-0.013800592
115	0x3da12901	0.07869149
116	0xb93f64c4	-0.00018252718
117	0xbdb3f190	-0.08786309
118	0xbdcede02	-0.101009384
119	0xbdc394e5	-0.09549884
120	0xbd4bd58c	-0.0497642
121	0x3e4e9c85	0.20176895
122	0x3d9141a4	0.07092598
123	0x3bab154f	0.005221046
124	0x3d89f039	0.06735272
125	0xbd2c9e4a	-0.042143144
126	0xbe4a5228	-0.19757903
127	0xbe43ea29	-0.19132294
128	0xbcc4f7d4	-0.024043955
129	0xbe584d8d	-0.21123333
130	0x3d4698e3	0.048485648
131	0x3c70ab1f	0.014689236
132	0xbda0d70b	-0.07853516
133	0x3d9eefd6	0.07760589
134	0x3d4fee47	0.05076435
135	0xbe6b5674	-0.22982198
136	0xbd9276db	-0.07151576
137	0xbd76fefd	-0.06030177
138	0x3db3b114	0.08774009
139	0xbe04fa59	-0.12986125
140	0x3e972537	0.2952058
141	0x3d917bf4	0.0710372
142	0xbcf03f8c	-0.029327177
143	0xbda65bf8	-0.081230104
144	0x3d448dda	0.047986843
145	0x3e7a7e9c	0.2446236
146	0xbc301ca2	-0.010749014
147	0xbd838ced	-0.06423364
148	0xbcbb3684	-0.022853144
149	0xbe0eeef2	-0.13958338
150	0x3e4e6055	0.20153935
151	0x3dd137b7	0.10215705
152	0xbd1f4ca5	-0.038891453
153	0x3e599684	0.21248823
154	0x3deb5d49	0.11492402
155	0xbe2c2681	-0.16811563
156	0x3e2b370d	0.16720219
157	0xbdd991f9	-0.10623545
158	0x3dc84589	0.09778888
159	0xbaff4b33	-0.0019477367
160	0x3d272815	0.04080971
161	0x3cfff7fc	0.031246178
162	0xbc3ac801	-0.011400224
163	0xbe7dc2dd	-0.24781366
164	0xbdaf3c5f	-0.08556437
165	0xbd4cc28e	-0.04999023
166	0x3ca42652	0.020037804
167	0xbdc56eff	-0.096403114
168	0x3d861e5d	0.0654876
169	0x3da83852	0.08213867
170	0x3e020fb4	0.12701303
171	0xbe0f963e	-0.14022157
172	0x3e28f818	0.1650089
173	0x3ddf96c0	0.10917425
174	0xbd9b93d4	-0.07596555
175	0x3e227249	0.15863909
176	0xbc4fbc1e	-0.012679128
177	0x3d3a26a3	0.045447003
178	0xbbd894c4	-0.006609531
179	0x3cb9ecb0	0.02269587
180	0xbd9cdff3	-0.076599024
181	0xbe0ed86b	-0.13949744
182	0x3ddd6714	0.10810676
183	0xbc864079	-0.016388165
184	0xbd24c5b3	-0.040227603
185	0xbd5726cb	-0.05252723
186	0xbe93cd39	-0.2886751
187	0xbe0ec5a2	-0.13942578
188	0x3c98e3be	0.018663283
189	0xbced62fa	-0.02897786
190	0xbe24fe6d	-0.1611268
191	0x3d22b314	0.039721563
192	0xbe13d2da	-0.14435902
193	0x3d9aa8be	0.07551716
194	0xbddd086b	-0.10792621
195	0x3d4b950b	0.049702685
196	0xbd563f27	-0.05230632
197	0xbda45dd4	-0.08025709
198	0x3e9e31d7	0.308974
199	0xbd302ddc	-0.043012485
200	0xbba75a1b	-0.005107177
201	0xbe037cdc	-0.12840599
202	0x3dbb261e	0.0913813
203	0xbe14a4f4	-0.1451605
204	0x3d78b389	0.060718093
205	0x3c707984	0.014677409
206	0xbd50c871	-0.050972406
207	0x3d975dbf	0.073909275
208	0xbd2a61be	-0.04159712
209	0x3d2b95fc	0.041891083
210	0xbceb604f	-0.028732447
211	0xbd85b8be	-0.065293774
212	0xbd889517	-0.06669062
213	0x3de384c8	0.111093104
214	0xbdbd4491	-0.09241594
215	0x3cd59d7c	0.026076071
216	0xbdc801ba	-0.09765954
217	0xbda97d7c	-0.08275887
218	0x3c40542e	0.01173882
219	0x3e836d3c	0.25669277
220	0x3e65f7de	0.22457835
221	0xbd502f9b	-0.05082665
222	0x3df07528	0.11741096
223	0x3e89a718	0.26885295
224	0x3da9f32f	0.08298337
225	0xbd1c9bcd	-0.03823452
226	0xbb624252	-0.0034524393
227	0xbd853f17	-0.06506174
228	0x3db76b58	0.08956021
229	0xbde4e0a3	-0.111756586
230	0x3e5c150b	0.21492402
231	0xbb007ec4	-0.0019606808
232	0xbd7a5ff7	-0.061126675
233	0x3de687d4	0.11256376
234	0xbe14d171	-0.1453302
235	0xbc702fd4	-0.014659841
236	0xbd0cc96f	-0.03437179
237	0x3d9d8779	0.07691855
238	0xbd39faee	-0.04540532
239	0x3da190ed	0.078889705
240	0xbdec6f35	-0.115446486
241	0x3d70dda7	0.058805134
242	0x3a2d6f07	0.00066159706
243	0xbcdfa8ca	-0.027302165
244	0x3de5b209	0.11215598
245	0xbc8abdde	-0.016936239
246	0xbcda173b	-0.026622405
247	0xbd7f9b08	-0.06240371
248	0x3dce2a03	0.10066607
249	0xbe25c1b5	-0.16187175
250	0x3d0ff023	0.03514112
251	0xbd9fda22	-0.078052774
252	0xbdcb3fe3	-0.09924295
253	0xbe059517	-0.13045155
254	0x3d57973a	0.052634455
255	0xbe6be65d	-0.23037095

fc3.bias f4 [10]
0	0xbd9071d6	-0.070529625
1	0xbef40a41	-0.47664073
2	0x3e96b12f	0.29432055
3	0x3df35445	0.118813075
4	0x3eb8e1ce	0.36109775
5	0xbdd7a4d1	-0.10529483
6	0x3e209116	0.15680346
7	0xbe60c764	-0.21951061
8	0x3e938af8	0.28816962
9	0xbe9f2010	-0.3107915
