cifar/cifar_net.pth (torch, 250887 bytes, 10 tensors)

conv1.weight f4 [6, 3, 5, 5]
-0.1528844 -0.23407212 -0.30258158 -0.32128313 -0.24844182 -0.2380092 -0.24251868 -0.18060103
-0.24589594 -0.13452554 0.15173791 0.13942102 -0.021084495 -0.017051086 -0.022548562 0.20044708
0.18186109 0.27557656 0.030792685 -0.002247235 0.27954364 0.33642417 0.33022276 0.2524382
0.16402027 -0.18487291 -0.16084296 -0.094398536 -0.046864014 0.030007664 -0.09484062 -0.17596914
-0.16610284 -0.26844943 -0.19227943 0.031024134 0.0025532614 -0.03338599 -0.09108843 -0.1968445
0.063493006 0.068194896 0.034047097 -0.007493149 -0.055291075 -0.01598287 -0.0022790097 -0.0372224
-0.07657681 -0.050372537 0.17739566 0.11237848 0.13849518 0.2576812 0.1815838 0.1644128
0.0508035 0.042727534 0.17224635 0.19625238 0.098371714 0.105910264 0.23891573 0.024264384
-0.022950226 0.07055839 0.24788566 0.11182468 0.20494665 0.0423988 0.11223828 0.14892009
0.05913978 -0.019256819 -0.14048502 -0.058082186 0.08296638 0.14152129 0.27952948 0.23206873
0.0015703427 0.03108717 0.0037246668 0.07086098 0.10503297 0.08314352 0.23283954 0.040934674
-0.16029944 -0.05861789 0.13537382 0.2361661 0.042388428 -0.25124502 -0.09796975 0.18922685
0.021041285 -0.13846342 -0.17359358 0.01461243 -0.19903348 -0.25880134 0.06969604 -0.0016924519
-0.14246567 0.016795749 -0.12809598 -0.16429874 -0.09150116 -0.14097732 0.18780625 0.0643535
-0.098134175 -0.36621165 -0.13597481 0.27427188 0.092769004 -0.2528472 -0.3242924 -0.20865831
0.23946595 0.0033581443 -0.030605003 -0.20585601 -0.09936258 -0.0065644286 -0.024296323 0.00873491
0.0050895265 0.034898028 0.059844207 0.21607418 0.048284985 -0.15692553 -0.18381505 0.3898284
0.2534657 -0.07819948 -0.33348858 -0.16117842 0.52370566 0.41809067 0.009908496 -0.28881487
-0.17640626 0.4876013 0.3901065 -0.029466705 -0.14970918 -0.03876531 -0.12786788 -0.13520393
-0.051282577 0.04598937 0.24847381 0.10171792 0.014222448 -0.10457277 -0.11814464 0.20466624
-0.039269734 -0.006557975 -0.13935769 -0.12867968 0.15739724 -0.20498493 -0.09020778 -0.035344355
0.080076694 0.017684925 -0.13949145 -0.006641095 0.018782647 0.1484607 -0.060776502 -0.1035704
-0.23079802 -0.28694186 -0.1727214 -0.015275975 -0.061759725 -0.32604733 -0.19022994 -0.102874234
-0.11535452 -0.13569067 -0.17824787 -0.1722573 -0.21911167 -0.044046193 -0.23081811 -0.037309367
0.029550359 -0.082075864 -0.13960122 0.037393738 0.037604712 0.056679282 0.030676164 0.05993624
-0.070048586 -0.07190353 -0.066983946 -0.01151495 0.09344 0.12906016 -0.077185825 -0.14624418
-0.07071752 0.16616656 -0.039765865 -0.03818993 0.05239352 0.07099416 0.118315555 -0.049772877
0.008771404 0.08856891 0.12967081 0.13164166 0.18456838 0.09750975 0.24387962 0.13660555
0.05416882 -0.015607732 0.17301227 -0.05843466 -0.03935817 0.16530207 -0.14745203 0.11491982
-0.25811958 0.10859351 0.14996126 0.0482141 -0.033053886 -0.60832185 0.01309459 0.23945026
0.24134316 -0.07782368 -0.6044258 0.2072376 0.1836671 0.24583228 -0.014990852 -0.6379295
0.0028690833 0.07515935 -0.14788419 0.18899065 -0.2742084 -0.14102685 0.00093040935 0.058032315
00000000: ba8d 1cbe 9ab0 6fbe f9eb 9abe 397f a4be
00000010: 8867 7ebe afb8 73be d156 78be 7aef 38be
00000020: 25cc 7bbe 10c1 09be 2f61 1b3e 62c4 0e3e
00000030: 64b9 acbc b8ae 8bbc c3b7 b8bc 0042 4d3e
00000040: cb39 3a3e 5f18 8d3e f140 fc3c 5946 13bb
00000050: 5820 8f3e ca3f ac3e f512 a93e 943f 813e
00000060: eef4 273e 534f 3dbe 04b4 24be 0554 c1bd
00000070: 7bf4 3fbd a2d2 f53c cd3b c2bd 4131 34be
00000080: dd16 2abe 3472 89be e6e4 44be 5326 fe3c
00000090: 9e54 273b bfbf 08bd 928c babd 9b91 49be
000000a0: 9f08 823d c4a9 8b3d f874 0b3d 1789 f5bb
000000b0: e578 62bd 82ee 82bc 705b 15bb 8476 18bd
000000c0: 4dd4 9cbd 6f53 4ebd 35a7 353e b026 e63d
000000d0: aed1 0d3e caee 833e 1bf1 393e d45b 283e
000000e0: 5517 503d 1103 2f3d 5961 303e 62f6 483e
000000f0: 1c77 c93d 7be7 d83d 53a6 743e 1ac6 c63c
00000100: 1d02 bcbc eb80 903d bdd5 7d3e 5604 e53d
00000110: 89dd 513e 5daa 2d3d 2fdd e53d 827e 183e
00000120: 8e3c 723d 7ac0 9dbc 4edb 0fbe 96e7 6dbd
00000130: 47ea a93d f5ea 103e 7d1e 8f3e 6da3 6d3e
00000140: f5d3 cd3a 85aa fe3c 8a19 743b 901f 913d
00000150: 871b d73d 2647 aa3d 7d6d 6e3e 1eab 273d
00000160: 8925 24be 5019 70bd 6f9f 0a3e 87d5 713e
00000170: 7d9f 2d3d 30a3 80be 5da4 c8bd afc4 413e
00000180: c65e ac3c 5bc9 0dbe 84c2 31be f968 6f3c
00000190: 6fcf 4bbe 9c81 84be ccbc 8e3d 43d5 ddba
000001a0: 85e2 11be 3d97 893c 982b 03be ee3d 28be
000001b0: f664 bbbd 5c5c 10be 4850 403e c5cb 833d
000001c0: 92fa c8bd 1880 bbbe fb3c 0bbe 5d6d 8c3e
000001d0: adfd bd3d 3075 81be a709 a6be 86aa 55be
000001e0: 9036 753e 5014 5c3b 58b7 fabc ebcb 52be
000001f0: 9c7e cbbd 6b1a d7bb 1509 c7bc de1c 0f3c
00000200: 0bc6 a63b 3cf1 0e3d 331f 753d 8d42 5d3e
00000210: 7ac6 453d 16b1 20be 033a 3cbe 9797 c73e
00000220: 42c6 813e 0d27 a0bd 04bf aabe f50b 25be
00000230: 9311 063f fb0f d63e 3f57 223c 8bdf 93be
00000240: d8a3 34be e1a6 f93e 0abc c73e 2964 f1bc
00000250: 5d4d 19be 60c8 1ebd ccef 02be e672 0abe
00000260: ae0d 52bd 5a5f 3c3d eb6f 7e3e 7c51 d03d
00000270: 4505 693c 402a d6bd d1f5 f1bd 0794 513e
00000280: 4dd9 20bd 48e4 d6bb c8b3 0ebe 9bc4 03be
00000290: be2c 213e 92e7 51be dbbe b8bd 3ec5 10bd
000002a0: 40ff a33d fadf 903c d9d6 0ebe 8b9d d9bb
000002b0: 11de 993c 1506 183e c8f0 78bd b81c d4bd
000002c0: 5156 6cbe 0bea 92be e1dd 30be 1548 7abc
000002d0: c4f7 7cbd adef a6be a3cb 42be baaf d2bd
000002e0: fe3e ecbd 7ff2 0abe 9c86 36be 3864 30be
000002f0: cf5e 60be c869 34bd 955b 6cbe b5d1 18bd
00000300: 9813 f23c 6417 a8bd 9ff3 0ebe 2d2a 193d
00000310: 6607 1a3d 8928 683d 944c fb3c b47f 753d
00000320: a275 8fbd 2842 93bd e12e 89bd 33a9 3cbc
00000330: 795d bf3d 5928 043e 9a13 9ebd 09c1 15be
00000340: 59d4 90bd 9127 2a3e 88e1 22bd 0b6d 1cbd
00000350: 969a 563d 6365 913d 6d4f f23d a5de 4bbd
00000360: efb5 0f3c 9e63 b53d 6dc8 043e 12cd 063e
00000370: 7eff 3c3e 31b3 c73d 94bb 793e 53e2 0b3e
00000380: 20e0 5d3d 93b7 7fbc 212a 313e 2f59 6fbd
00000390: 0836 21bd f244 293e aafd 16be 155b eb3d
000003a0: 4028 84be 4666 de3d 728f 193e 267c 453d
000003b0: 8363 07bd fbba 1bbf b18a 563c 7332 753e
000003c0: a922 773e 0662 9fbd a6bb 1abf 1836 543e
000003d0: 3a13 3c3e 75bb 7b3e 319c 75bc 594f 23bf
000003e0: 3b07 3c3b 25ed 993d f46e 17be c486 413e
000003f0: 0b65 8cbe 5869 10be b7e6 733a 4bb3 6d3d

conv1.bias f4 [6]
-0.061652645 -0.17571975 -0.28715932 -0.22819956 -0.4317407 0.18261966
00000000: 7c87 7cbd e1ef 33be 8c06 93be 25ad 69be
00000010: 1e0d ddbe a600 3b3e

conv2.weight f4 [16, 6, 5, 5]
-0.099910304 -0.14285584 -0.00881886 0.18682961 0.34353215 -0.11031837 -0.17940055 -0.021575702
0.24182186 0.13976678 -0.062154777 -0.07848067 -0.104844056 0.14317209 0.17328942 -0.086353764
-0.18239336 -0.145702 0.028640544 0.13264418 -0.090815485 -0.18956202 -0.021429868 -0.021863693
0.15276384 0.1483839 -0.06066483 -0.1876688 -0.10457966 0.14485934 0.1843098 -0.13330941
-0.15999036 -0.022858666 0.07499431 0.14141472 -0.07479195 -0.09687108 -0.019064976 0.14309755
0.07792402 -0.13773096 -0.0581247 -0.046169855 0.058178265 0.099119045 -0.106579855 -0.009024517
0.047839772 0.09666937 0.054922987 0.11731501 0.05184591 0.004818335 -0.14221787 0.105369456
0.11202409 0.074156374 -0.092054784 -0.09970449 0.1393513 0.11907275 -0.016300868 -0.14568831
-0.056734238 0.10581905 0.044813313 -0.047102686 -0.04870377 -0.06399653 0.16048568 0.002160213
-0.0869017 -0.020958869 -0.040964775 -0.06276559 0.07496337 -0.021590002 -0.21322888 -0.16872802
0.030887326 0.14504685 -0.107673734 -0.23768428 -0.23661308 0.15598713 0.082497776 -0.12532166
-0.18101048 -0.09700258 0.07053225 0.09661947 -0.032523017 -0.123433664 -0.09688875 0.15280724
0.022401998 -0.15678547 -0.10820227 -0.121017806 0.066638775 0.10708071 -0.0021383236 0.046951056
0.09453641 0.13355108 0.06118275 -0.009247906 -0.01968802 -0.0055561713 0.021742528 -0.06234284
-0.07887181 -0.055289928 -0.12294877 0.00569115 -0.057090737 -0.032906186 -0.09763698 -0.07102429
-0.046309456 -0.087341815 -0.098072805 -0.08882174 -0.113148004 -0.15420558 -0.15879597 -0.12802464
0.030064221 0.22634107 -0.1541809 -0.20627992 -0.11461951 0.035627328 0.13307014 -0.17468525
-0.12096426 -0.09981771 0.050410286 0.1284697 -0.24774644 -0.1540822 -0.10503973 0.028910924
0.11484997 -0.20030566 -0.19028237 -0.03463542 0.020714674 -0.008037143 -0.010042367 0.024845462
-0.055832453 -0.026224175 -0.08489682 -0.14421524 0.013687179 -0.0923961 -0.020584252 -0.051786363
-0.13585259 -0.1451081 -0.06559149 -0.104480125 -0.13844776 -0.08098373 0.05855627 0.060780752
0.01260687 0.0376338 -0.0116595365 -0.0011694635 0.0007428494 0.01463249 -0.05666061 -0.18936236
0.051766377 0.07775726 0.0149589535 -0.010129942 0.105901875 0.14865273 -0.16132917 -0.06692948
-0.035631243 0.03762588 -0.060333297 -0.10251265 -0.02077009 -0.015924234 0.05340034 -0.19115998
0.053553525 -0.056069903 0.018331163 0.001817633 -0.17558584 -0.114924975 -0.04789001 -0.052317753
-0.068387285 -0.014815076 0.0035464321 0.06707323 0.03687812 -0.116973646 0.040214416 -0.08204068
0.10759 0.07116163 -0.08928743 -0.06734156 0.0005407639 0.058195703 -0.08405323 -0.07933077
-0.04202683 -0.048856355 -0.07314027 -0.041979317 -0.037273522 -0.11453293 -0.10492332 -0.03589021
-0.08205348 -0.027521275 -0.010258409 -0.038417485 -0.052648045 0.059278592 -0.12920432 -0.032395605
-0.01743864 0.06889553 0.024828887 -0.046321996 0.049660917 -0.06755141 0.15963833 -0.04498182
-0.011965365 0.13772227 0.0598208 0.05368701 0.1302083 -0.051768698 0.041834913 0.045413744
0.0892063 0.032785766 0.056241933 0.015590444 0.17851697 0.32261372 0.3255563 0.053576313
00000000: c69d ccbd cd48 12be fb7c 10bc 4350 3f3e
00000010: 72e3 af3e 99ee e1bd c7b4 37be 87bf b0bc
00000020: 26a0 773e 061f 0f3e 0296 7ebd 79ba a0bd
00000030: 7bb8 d6bd b49b 123e c872 313e 3eda b0bd
00000040: 53c5 3abe e832 15be 939f ea3c e0d3 073e
00000050: 78fd b9bd 8c1c 42be b18d afbc 7d1b b3bc
00000060: 206e 1c3e f3f1 173e af7b 78bd 402c 40be
00000070: dc2d d6bd 0256 143e b5bb 3c3e 4382 08be
00000080: 83d4 23be 1942 bbbc 9e96 993d 05cf 103e
00000090: 862c 99bd 5864 c6bd 272e 9cbc 2a88 123e
000000a0: a196 9f3d 5809 0dbe 2a14 6ebd 9a1c 3dbd
000000b0: 554c 6e3d edfe ca3d 8a46 dabd 91db 13bc
000000c0: a3f3 433d 97fa c53d edf6 603d da42 f03d
000000d0: 605c 543d 20e3 9d3b 90a1 11be f1cb d73d
000000e0: e36c e53d 4cdf 973d 3887 bcbd de31 ccbd
000000f0: 1bb2 0e3e 6adc f33d 6689 85bc 512f 15be
00000100: 2962 68bd a8b7 d83d 2a8e 373d bfee 40bd
00000110: 9b7d 47bd 9d10 83bd 5c56 243e 5c92 0d3b
00000120: 85f9 b1bd efb1 abbc aeca 27bd 3f8b 80bd
00000130: 6586 993d 84dd b0bc ac58 5abe 0ac7 2cbe
00000140: 6b07 fd3c 2987 143e 0c84 dcbd 8263 73be
00000150: b34a 72be 17bb 1f3e 98f4 a83d 5254 00be
00000160: d05a 39be 4aa9 c6bd 3673 903d 6ee0 c53d
00000170: db36 05bd caca fcbd 9c6d c6bd 8079 1c3e
00000180: 6584 b73c 5f8c 20be 2799 ddbd 2fd8 f7bd
00000190: e979 883d 224d db3d 1e23 0cbb c04f 403d
000001a0: 4e9c c13d 9dc1 083e c39a 7a3d 8784 17bc
000001b0: c548 a1bc 8b10 b6bb 631d b23c 355b 7fbd
000001c0: 8b87 a1bd b177 62bd 91cc fbbd d47c ba3b
000001d0: fad7 69bd a3c8 06bd e6f5 c7bd 2f75 91bd
000001e0: fcae 3dbd 44e0 b2bd 65da c8bd 2ce8 b5bd
000001f0: 24ba e7bd 11e8 1dbe 699b 22be e418 03be
00000200: 3e49 f63c f4c5 673e 99e1 1dbe 0b3b 53be
00000210: a2bd eabd f6ed 113d 8a43 083e b1e0 32be
00000220: 1cbc f7bd 3a6d ccbd 047b 4e3d 908d 033e
00000230: 3eb1 7dbe b9c7 1dbe 121f d7bd 9ad6 ec3c
00000240: 7636 eb3d ed1c 4dbe 62d9 42be dfdd 0dbd
00000250: d2b1 a93c 39ae 03bc bd88 24bc b688 cb3c
00000260: 92b0 64bd 15d4 d6bc 62de adbd 29ad 13be
00000270: 3140 603c 2b3a bdbd 4ea0 a8bc f01d 54bd
00000280: f11c 0bbe 3897 14be d554 86bd adf9 d5bd
00000290: 40c5 0dbe ccda a5bd b3d8 6f3d 3df5 783d
000002a0: 0c8d 4e3c e625 1a3d a407 3fbc af48 99ba
000002b0: c8bb 423a 1dbd 6f3c f514 68bd 35e8 41be
000002c0: fb08 543d 333f 9f3d 6616 753c 0ef8 25bc
000002d0: 15e3 d83d 6c38 183e 7933 25be 5312 89bd
000002e0: 11f2 11bd 981d 1a3d 0c20 77bd 27f2 d1bd
000002f0: 0926 aabc 8a73 82bc 51ba 5a3d 71bf 43be
00000300: f15a 5b3d 8ea9 65bd 3c2b 963c a53d ee3a
00000310: c6cc 33be c95d ebbd 5128 44bd 244b 56bd
00000320: a20e 8cbd efba 72bc 426b 683b b15d 893d
00000330: 830d 173d e18f efbd dfb7 243d f204 a8bd
00000340: 2558 dc3d 30bd 913d 54dc b6bd 5fea 89bd
00000350: 0dc2 0d3a 9e5e 6e3d 1a24 acbd 2c78 a2bd
00000360: 5324 2cbd 9a1d 48bd 91ca 95bd 81f2 2bbd
00000370: 1fac 18bd 3e90 eabd 0ae2 d6bd 9d01 13bd
00000380: a80b a8bd 4c74 e1bc e312 28bc a75b 1dbd
00000390: 7aa5 57bd 1cce 723d 234e 04be 41b1 04bd
000003a0: 7bdb 8ebc 1a19 8d3d f365 cb3c 22bc 3dbd
000003b0: 3f69 4b3d 6558 8abd 3b78 233e db3e 38bd
000003c0: 610a 44bc 1107 0d3e a806 753d e9e6 5b3d
000003d0: 5355 053e 6a0b 54bd 165b 2b3d c303 3a3d
000003e0: cbb1 b63d 5e4a 063d f15d 663d 106f 7f3c
000003f0: 27cd 363e a02d a53e 51af a63e d672 5b3d

conv2.bias f4 [16]
-0.06981896 -0.2690747 0.8977876 0.009579139 0.33841404 -0.12526032 0.6710527 -0.7380057
0.032708414 -0.025632543 -0.09726848 -0.15829599 -0.32730633 -0.66907716 0.07680651 0.24371085
00000000: 3efd 8ebd 29c4 89be 68d5 653f d2f1 1c3c
00000010: 9b44 ad3e 3e44 00be 1cca 2b3f f1ed 3cbf
00000020: 42f9 053d 57fb d1bc b234 c7bd 5818 22be
00000030: b294 a7be a448 2bbf bb4c 9d3d 568f 793e

fc1.weight f4 [120, 400]
0.014713945 0.06914415 -0.02751328 -0.004070818 -0.0012367647 0.025449404 -0.015762242 0.006103732
0.022164172 0.03308126 -0.025907574 0.017663613 0.027841885 -0.016143335 0.030010933 -0.030469984
-0.0019750379 -0.0048928615 0.028072482 -0.046759672 0.027574344 0.007366052 0.0062476406 0.001242402
0.016872773 0.029872114 -0.0034088695 0.020042185 -0.011424658 0.011588449 -0.023738334 0.03723942
-0.008360844 -0.0008077252 0.020880416 0.027247772 -0.011378869 -0.05666241 -0.047657195 0.031175066
0.07145532 0.033367623 0.0011476121 -0.0046761795 0.04682872 0.0034650497 -0.02302291 0.028940363
0.043282848 0.0041021113 -0.0056061703 -0.029458275 0.0064516133 -0.013625361 0.015799707 -0.00757095
-0.06227934 -0.026072517 0.03622594 0.101902105 -0.03551311 -0.009866545 0.02952816 0.040239662
0.075576015 -0.0068713264 0.01793472 -0.0014611125 -0.024120554 0.004530561 -0.015270483 -0.00083296426
-0.01682059 0.014660263 0.061686024 -0.0103799645 0.026725264 0.028856736 -0.065257 0.048040047
-0.0018118891 0.048504595 -0.009512304 -0.017715856 -0.015146027 0.050709862 0.069107145 0.004954736
0.0010982176 0.055759948 0.06001215 0.044667322 0.0027162866 0.026838059 -0.012621561 0.05215544
0.06303993 0.037250515 0.073421076 -0.01206851 -0.019178767 0.0109217595 0.021216666 0.03729972
0.0011902674 -0.038117096 0.033669557 -0.016007349 0.047742903 -0.0023397263 -0.016287016 -0.031050682
-0.0023961863 0.049018532 -0.003777525 0.0041007414 0.0022543506 0.004237255 0.050299574 -0.023804573
-0.048677873 0.004476142 -0.007412472 0.0025743344 0.032904625 -0.0048614442 0.01977052 -0.015158551
-0.0014318932 0.07412228 -0.05150811 -0.009301887 -0.005274911 0.055153668 0.023989959 -0.04817498
-0.017760448 0.033175856 0.016918559 -0.055915274 -0.050080594 -0.016621914 -0.025208626 0.05666906
0.015274006 0.046127837 -0.061052483 -0.033070616 0.021824358 -0.0232433 -0.017785091 -0.07251557
0.035775125 -0.05527966 -0.08124102 -0.049289558 0.0063221348 -0.035650115 -0.01394304 -0.079011
-0.040766835 -0.050274786 -0.06662883 -0.012189029 -0.0238379 -0.012300331 0.0042736637 -0.0120895235
-0.007358789 -0.029913401 -0.05145268 0.025768263 -0.04528051 0.005787202 -0.051038682 -0.010144657
-0.023714388 0.026397029 -0.0034323419 0.07236181 -0.019946864 0.00033783462 -0.01873105 -0.04053626
0.03689272 0.06439102 0.028779961 -0.030674191 0.034198847 -0.043915786 -0.012933761 -0.0077734366
0.023861123 0.0050487937 0.003196043 0.0007710308 -0.001469789 0.012418697 0.008753566 -0.000113702525
0.03082787 -0.005746449 -0.030835107 -0.018737322 0.034098867 -0.0020884261 0.018457253 -0.011127824
-0.0746725 -0.035806004 -0.044825643 0.033731014 0.0038695333 -0.04773874 -0.06465283 -0.016360387
0.012774347 0.032777593 0.030901972 -0.027003856 0.018049587 -0.019829424 -0.041041203 -0.06899019
-0.01216125 -0.011491669 -0.022499055 0.025289299 -0.048408456 -0.0094057275 -0.03246826 -0.014321895
0.010274791 -0.009682118 -0.018481033 -0.05009173 -0.0008472001 -0.025432806 0.047011252 -0.016710183
0.004733826 0.036092613 -0.010055846 0.0077861655 0.022773935 -0.0013316078 0.0030530011 0.010264596
0.057337683 0.025962135 0.047291853 0.023704657 -0.0067785154 -0.0320103 0.016455447 0.00838046
00000000: c212 713c 739b 8d3d 8863 e1bc 7f64 85bb
00000010: f01a a2ba 457b d03c d11f 81bc d101 c83b
00000020: a391 b53c 3780 073d 1f3c d4bc 48b3 903c
00000030: aa14 e43c 073f 84bc 7dd9 f53c 309c f9bc
00000040: a36f 01bb 4c54 a0bb 43f8 e53c 1287 3fbd
00000050: 97e3 e13c ec5e f13b 02b9 cc3b 18d8 a23a
00000060: c538 8a3c 5db6 f43c 5767 5fbb 822f a43c
00000070: 7d2e 3bbc 7add 3d3c e576 c2bc 5d88 183d
00000080: ecfb 08bc 85bd 53ba 680d ab3c b836 df3c
00000090: 706e 3abc d816 68bd 3134 43bd da62 ff3c
000000a0: 2b57 923d 7dac 083d 796b 963a a33a 99bb
000000b0: 79cf 3f3d e315 633b 8b9a bcbc 5714 ed3c
000000c0: 5b49 313d 016b 863b f7b3 b7bb 7b52 f1bc
000000d0: 0e68 d33b e83c 5fbc 636e 813c bb15 f8bb
000000e0: 9f18 7fbd 0896 d5bc a761 143d 0db2 d03d
000000f0: 3276 11bd 4aa7 21bc 0ae5 f13c 58d2 243d
00000100: 99c7 9a3d dd28 e1bb d5eb 923c cd82 bfba
00000110: 7898 c5bc 1a75 943b 0c31 7abc 495b 5aba
00000120: 55cb 89bc 9a31 703c 7caa 7c3d ba10 2abc
00000130: f1ee da3c f664 ec3c 76a5 85bd a4c5 443d
00000140: e97c edba c1ac 463d 7fd9 1bbc d820 91bc
00000150: 0b27 78bc 25b5 4f3d 0c88 8d3d 575b a23b
00000160: 11f2 8f3a 8b64 643d 4dcf 753d 15f5 363d
00000170: ba03 323b 7ddb db3c aaca 4ebc f1a0 553d
00000180: 141b 813d ff93 183d ca5d 963d 00bb 45bc
00000190: ca1c 9dbc 2ef1 323c 93ce ad3c 97c7 183d
000001a0: bf02 9c3a ac20 1cbd 17e9 093d d821 83bc
000001b0: 108e 433d 1856 19bb 596c 85bc 005e febc
000001c0: 5609 1dbb a8c7 483d 5a90 77bb 835f 863b
000001d0: babd 133b acd8 8a3b ed06 4e3d cf01 c3bc
000001e0: 7362 47bd 9aac 923b 52e4 f2bb 2ab6 283b
000001f0: 00c7 063d c04c 9fbb c9f5 a13c 925b 78bc
00000200: 5dae bbba 6ccd 973d 2bfa 52bd f166 18bc
00000210: 29d9 acbb d0e8 613d 9786 c43c 2153 45bd
00000220: 5c7e 91bc 68e3 073d ca98 8a3c 6a07 65bd
00000230: 4f21 4dbd ae2a 88bc 5282 cebc d11d 683d
00000240: d33f 7a3c 8bf0 3c3d 2b12 7abd 0e75 07bd
00000250: ffc8 b23c bc68 bebc 0ab2 91bc 0b83 94bd
00000260: f088 123d ed6c 62bd b161 a6bd d9e3 49bd
00000270: e929 cf3b db05 12bd 5971 64bc 85d0 a1bd
00000280: 20fb 26bd efec 4dbd b274 88bd 7eb4 47bc
00000290: b347 c3bc 5487 49bc 170a 8c3b 2313 46bc
000002a0: ff21 f1bb f30c f5bc 0cc0 52bd f717 d33c
000002b0: 0e78 39bd 92a2 bd3b f00d 51bd c735 26bc
000002c0: ad44 c2bc 953e d83c 24f1 60bb 6e32 943d
000002d0: 9b67 a3bc 651f b139 dc71 99bc 5909 26bd
000002e0: d21c 173d 70df 833d f4c3 eb3c 7148 fbbc
000002f0: 1714 0c3d 0ae1 33bd 20e8 53bc 50b8 febb
00000300: 6778 c33c 5a70 a53b b474 513b 001f 4a3a
00000310: efa5 c0ba ca77 4b3c 1e6b 0f3c 9473 eeb8
00000320: bb8a fc3c b54c bcbb e899 fcbc 037f 99bc
00000330: 41ab 0b3d fadd 08bb aa33 973c 7a51 36bc
00000340: e5ed 98bd 51a9 12bd 189b 37bd 8829 0a3d
00000350: ff97 7d3b b289 43bd b468 84bd 3806 86bc
00000360: 7f4b 513c cc41 063d 2226 fd3c 3137 ddbc
00000370: badc 933c 5171 a2bc d21a 28bd bb4a 8dbd
00000380: fb3f 47bc 8e47 3cbc f04f b8bc 812b cf3c
00000390: f247 46bd 7b1a 1abc 70fd 04bd 62a6 6abc
000003a0: 9957 283c bfa1 1ebc 8965 97bc fc2c 4dbd
000003b0: a316 5eba 7658 d0bc df8e 403d cbe3 88bc
000003c0: 361e 9b3b d9d5 133d 46c1 24bc 1723 ff3b
000003d0: 6790 ba3c 5889 aeba dc14 483b d62c 283c
000003e0: ebda 6a3d 8bae d43c 1ab5 413d 4530 c23c
000003f0: 4f1e debb 3b1d 03bd 93cd 863c 324e 093c

fc1.bias f4 [120]
-0.035815258 0.034636818 0.13380948 -0.009357444 0.15675513 0.03180021 0.06938179 0.05914062
0.09614613 -0.15078878 -0.08607625 0.13065062 0.06495067 0.0070717013 0.022186093 -0.030515134
-0.052901167 0.108208865 -0.027732542 0.0357578 -0.017831426 -0.03745891 0.090976745 -0.051043767
0.14422393 0.027110169 0.028985677 0.14353183 -0.016824968 -0.017589131 0.055038396 -0.004945705
0.014785712 0.10481617 0.07533581 -0.0038344876 0.06829699 0.007216107 -0.0051066456 -0.045848876
0.005073359 0.007923727 0.12993313 -0.01178988 0.20076539 0.10470314 0.011459039 -0.065223135
-0.07770865 0.09123102 0.0595206 0.108744755 0.002258265 -0.013396458 0.11346678 -0.13632582
-0.05079336 0.0432059 0.20203455 0.032462377 0.013155145 0.012142992 0.23932742 -0.0053853528
-0.07169783 -0.110324375 -0.060080428 -0.076049894 -0.04064403 0.06842827 0.008185776 0.05139636
0.0177405 0.25526467 -0.019891819 -0.016177407 0.013474443 -0.13908471 0.01710161 -0.12165362
-0.004884077 -0.012275528 0.14219089 0.19397528 -0.0031777935 0.20932522 -0.029948637 -0.051159047
0.03492856 -0.016722785 -0.04979214 -0.026996085 0.0035261628 0.061487526 -0.04090016 0.13822854
0.036071118 -0.038106535 -0.19314317 0.103710346 0.13578498 -0.0029321748 0.041029274 -0.043450788
0.052566346 0.013576051 0.19808398 0.20205466 -0.025567988 0.11638007 0.20738687 0.032159258
-0.016786996 0.014622233 -0.04565473 0.039497115 0.10011618 -0.23560756 -0.04276821 0.054463755
00000000: 05b3 12bd 56df 0d3d 5a05 093e f74f 19bc
00000010: 6b84 203e f040 023d 0a18 8e3d 6f3d 723d
00000020: 43e8 c43d 6068 1abe bf48 b0bd 47c9 053e
00000030: db04 853d bbb9 e73b 9cbf b53c e0fa f9bc
00000040: e5ae 58bd 9c9c dd3d 5b2f e3bc c576 123d
00000050: 3613 92bc 846e 19bd 0452 ba3d 4513 51bd
00000060: 70af 133e 2516 de3c 5f73 ed3c 02fa 123e
00000070: 84d4 89bc 1517 90bc f16f 613d 950f a2bb
00000080: c53f 723c dca9 d63d a949 9a3d 074c 7bbb
00000090: 4bdf 8b3d 1875 ec3b a655 a7bb 08cc 3bbd
000000a0: 6b3e a63b 85d2 013c 310d 053e 572a 41bc
000000b0: 7195 4d3e 9a6e d63d b1be 3b3c b593 85bd
000000c0: b625 9fbd 54d7 ba3d dfcb 733d 92b5 de3d
000000d0: 66ff 133b d17c 5bbc 4561 e83d ff98 0bbe
000000e0: b30c 50bd abf8 303d 25e2 4e3e 45f7 043d
000000f0: ad88 573c 66f3 463c 3f12 753e 9d77 b0bb
00000100: 50d6 92bd bff1 e1bd e516 76bd 0cc0 9bbd
00000110: 5b7a 26bd 1f24 8c3d a21d 063c fd84 523d
00000120: 8654 913c 0db2 823e 2bf4 a2bc 7b86 84bc
00000130: e9c3 5c3c 396c 0ebe ad18 8c3c 8825 f9bd
00000140: 9b0a a0bb 4c1f 49bc 7d9a 113e 75a1 463e
00000150: 8742 50bb 5a59 563e d856 f5bc 268c 51bd
00000160: 4011 0f3d 39fe 88bc d8f2 4bbd e526 ddbc
00000170: 3217 673b 58da 7b3d ed86 27bd c88b 0d3e
00000180: 4fbf 133d 9915 1cbd 53c7 45be 1766 d43d
00000190: 380b 0b3e bb29 40bb 500e 283d 74f9 31bd
000001a0: cf4f 573d 166e 5e3c 87d6 4a3e 6be7 4e3e
000001b0: f573 d1bc ad58 ee3d 395d 543e 6db9 033d
000001c0: e284 89bc 1792 6f3c 7400 3bbd bac7 213d
000001d0: b609 cd3d 1c43 71be b82d 2fbd 6315 5f3d

fc2.weight f4 [84, 120]
0.07521491 0.033806805 0.07026298 0.027607685 -0.070286475 0.014223272 0.078088224 -0.039444312
0.020188065 0.05227959 0.033897933 0.007391034 0.021589363 -0.032239396 -0.09089531 0.047024168
0.03907838 -0.09035276 -0.022685753 -0.024515947 0.10593861 0.028933167 -0.026732806 -0.012879031
-0.09245586 -0.035988256 -0.030470531 0.038688645 -0.08715929 -0.09932203 -0.043405484 -0.010119942
-0.054388598 0.018176626 0.029060623 0.06410884 0.04841724 -0.044111725 0.04979484 -0.03685474
-0.0368136 -0.017109182 0.05186965 0.021751137 -0.025889328 -0.05569594 0.03624055 -0.067706816
-0.05238659 0.02317831 -0.024139639 -0.042912524 0.060813103 -0.030567 0.12889451 -0.087697916
-0.062027432 -0.061907735 0.05419333 0.056811772 0.04551419 0.0857322 0.020382112 -0.005841956
-0.049906973 0.019370984 -0.028736973 0.013797413 -0.009637756 0.0694785 0.0648419 0.07434311
-0.05349975 -0.06467202 0.049176596 0.0024147225 0.0633542 -0.062767886 -0.032057144 -0.03236544
-0.038793784 -0.05674307 -0.016934497 0.025219722 -0.03837315 -0.02796023 -0.070018634 -0.004823096
0.016579479 0.09374614 -0.027690902 -0.078725144 0.018919477 -0.045663696 -0.048598994 0.07074842
-0.022987299 0.08224191 -0.060713395 0.052120768 0.05714804 -0.0077865585 0.025061872 -0.07856964
0.005905191 -0.034287054 -0.06745596 -0.06562226 0.06059505 -0.008375661 0.079715945 -0.019708388
0.030851228 -0.03747384 -0.071441345 0.036243405 0.028945709 0.007851118 0.007891629 0.06010332
0.06157005 0.143984 -0.007400866 0.047265973 -0.05280199 -0.06950418 -0.050100394 -0.049782373
0.013002196 0.03220875 -0.06352281 0.07655661 -0.019116659 -0.028164422 -0.088534534 0.06927269
0.08189072 0.044141475 0.040291414 0.06131309 -0.067742266 -0.04606512 0.010855295 -0.022241658
-0.003841304 -0.06809807 -0.08009977 -0.051940907 0.12961179 0.06770603 -0.122489795 0.020171506
-0.065629676 0.003340831 -0.07838547 -0.06776157 0.060102746 -0.0593849 0.021373454 -0.04032158
0.07967451 0.08614365 -0.035997313 -0.07966147 -0.1294609 -0.017359218 -0.048460867 -0.015103645
-0.070832245 0.013615473 -0.082121804 -0.043175302 0.018784381 0.09367874 -0.13757254 -0.05371882
0.034881484 0.004561144 -0.062282007 0.0013230444 0.07560517 -0.041127015 0.05990906 0.09837833
0.058316108 -0.05316672 -0.089173235 -0.03253645 -0.06282745 0.048088603 0.03468013 -0.093501665
-0.033179343 0.020142196 0.101200074 -0.112495646 -0.04478379 0.06976989 -0.02732442 0.14690228
0.017009184 -0.03024729 -0.04710394 -0.107171915 -0.08835854 -0.091675125 0.078563355 -0.021288637
0.053595874 -0.07242913 -0.090295605 -0.06173064 -0.07428955 -0.010395517 0.08959292 -0.10976932
0.11528443 -0.082948945 0.05984968 0.044188242 -0.050762683 0.04960953 0.052118786 -0.08472793
0.057043023 -0.051164225 0.121372655 -0.05991357 -0.020871902 0.0005791055 -0.044056833 -0.08111612
0.06777741 0.0059089707 -0.085125215 -0.06970091 -0.03528101 -0.030638771 0.012476088 0.04217432
0.04160277 0.012333557 0.025816446 0.014590361 -0.061878785 -0.097045854 0.024001243 -0.08108836
0.014902339 -0.056925293 -0.15627195 0.10502709 -0.05120865 -0.011350798 -0.0058242898 0.1853601
00000000: 460a 9a3d 0179 0a3d 0ae6 8f3d 8329 e23c
00000010: 5bf2 8fbd ba08 693c b8ec 9f3d 5c90 21bd
00000020: 7161 a53c 2023 563d 8fd8 0a3d 7d30 f23b
00000030: 2ddc b03c 750d 04bd 5227 babd 6a9c 403d
00000040: a710 203d de0a b9bd 79d7 b9bc abd5 c8bc
00000050: 58f6 d83d 4005 ed3c c2fe dabc 9202 53bc
00000060: 7f59 bdbd 6c68 13bd 569d f9bc fc77 1e3d
00000070: 9280 b2bd 5969 cbbd f3c9 31bd 1dce 25bc
00000080: 94c6 5ebd 26e7 943c 8b10 ee3c 7f4b 833d
00000090: 2851 463d 7fae 34bd adf5 4b3d fff4 16bd
000000a0: dcc9 16bd 8e28 8cbc 4575 543d 712f b23c
000000b0: db15 d4bc 6d21 64bd f970 143d dfa9 8abd
000000c0: 5293 56bd 70e0 bd3c 7ec0 c5bc 0bc5 2fbd
000000d0: 2917 793d a567 fabc ecfc 033e f79a b3bd
000000e0: 7a10 7ebd f792 7dbd d3f9 5d3d 76b3 683d
000000f0: 166d 3a3d 5d94 af3d 63f8 a63c e16d bfbb
00000100: 416b 4cbd e6af 9e3c cd69 ebbc 8b0e 623c
00000110: aee7 1dbc be4a 8e3d d4cb 843d 3341 983d
00000120: 8e22 5bbd c472 84bd 666d 493d 5240 1e3b
00000130: d9bf 813d 738c 80bd 5a4e 03bd a091 04bd
00000140: 3be6 1ebd 6c6b 68bd 37ba 8abc 9799 ce3c
00000150: 2a2d 1dbd da0c e5bc ee65 8fbd 100b 9ebb
00000160: b0d1 873c fafd bf3d 08d8 e2bc a63a a1bd
00000170: 05fd 9a3c db09 3bbd bd0f 47bd 8ce4 903d
00000180: dc4f bcbc 726e a83d 9cae 78bd 967c 553d
00000190: 1014 6a3d 6326 ffbb 8e4e cd3c 1fe9 a0bd
000001a0: 5580 c13b 9570 0cbd 5a26 8abd f764 86bd
000001b0: 8432 783d 123a 09bc 1d42 a33d 7c73 a1bc
000001c0: b7bb fc3c 2b7e 19bd d74f 92bd f773 143d
000001d0: 8d1f ed3c faa1 003c e44b 013c e62e 763d
000001e0: e030 7c3d 8b70 133e f782 f2bb f799 413d
000001f0: e646 58bd 3558 8ebd 1236 4dbd 9ae8 4bbd
00000200: 2a07 553c 52ed 033d 3f18 82bd b6c9 9c3d
00000210: 8a9a 9cbc 13b9 e6bc 9851 b5bd d7de 8d3d
00000220: 52b6 a73d b1cd 343d 9c08 253d 6f23 7b3d
00000230: 75bc 8abd c7ae 3cbd 68da 313c 2334 b6bc
00000240: 63be 7bbb 0077 8bbd 590b a4bd fdbf 54bd
00000250: f4b8 043e 76a9 8a3d eedb fabd b73e a53c
00000260: da68 86bd d8f1 5a3b 9088 a0bd 94c6 8abd
00000270: 4c2e 763d 953d 73bd 6217 af3c 3e28 25bd
00000280: 642c a33d 156c b03d eb71 13bd 8e25 a3bd
00000290: 6691 04be eb34 8ebc e77e 46bd 4775 77bc
000002a0: 7f10 91bd 6f13 5f3c 7a2f a8bd 96d8 30bd
000002b0: b4e1 993c a4da bf3d d1df 0cbe 4408 5cbd
000002c0: e3df 0e3d a675 953b 6b1b 7fbd 016a ad3a
000002d0: e2d6 9a3d cd74 28bd 3463 753d 947a c93d
000002e0: dfdc 6e3d 59c5 59bd 75a0 b6bd f144 05bd
000002f0: aeab 80bd 8ef8 443d c10c 0e3d cd7d bfbd
00000300: 10e7 07bd 3f01 a53c fc41 cf3d 1e64 e6bd
00000310: 356f 37bd 84e3 8e3d 76d7 dfbc 8d6d 163e
00000320: d856 8b3c 2ac9 f7bc 10f0 40bd f37c dbbd
00000330: 52f5 b4bd 2bc0 bbbd d3e5 a03d 8265 aebc
00000340: 5987 5b3d b955 94bd e7ec b8bd 44d9 7cbd
00000350: 1f25 98bd f551 2abc 7e7c b73d bdce e0bd
00000360: 3e1a ec3d 23e1 a9bd f024 753d bbfe 343d
00000370: 88ec 4fbd 5d33 4b3d 827a 553d d685 adbd
00000380: f2a5 693d 9491 51bd 3a92 f83d ee67 75bd
00000390: 8dfb aabc 1dcf 173a f074 34bd 3520 a6bd
000003a0: e2ce 8a3d 0aa0 c13b 2156 aebd 5abf 8ebd
000003b0: d282 10bd 29fe fabc 8168 4c3c fbbe 2c3d
000003c0: ab67 2a3d b012 4a3c 037d d33c 690c 6f3c
000003d0: 9c74 7dbd fabf c6bd 419e c43c a711 a6bd
000003e0: f128 743c 7f2a 69bd c105 20be 7118 d73d
000003f0: 29c0 51bd b3f8 39bc afd9 bebb 0acf 3d3e

fc2.bias f4 [84]
-0.043981444 0.12126687 -0.006256501 0.23848447 -0.121480554 0.019830652 -0.085363366 -0.05443704
0.059131697 -0.087217785 -0.044322416 -0.0042176815 0.31738293 -0.15663339 -0.06026552 0.036589596
0.13819365 0.1521641 0.10828177 -0.031683832 0.056452718 -0.06330623 0.09623553 0.18648894
-0.016918078 -0.035285883 0.45175928 0.10834975 -0.07820843 -0.06932691 -0.1310937 0.083852425
-0.04992448 -0.070965506 0.049236547 0.14060535 0.07567533 0.10746181 0.44568166 0.14405109
-0.10021064 -0.010629862 0.034544233 -0.046019983 0.25080255 0.092688195 -0.0460838 0.058413055
-0.02225007 -0.06734326 0.04052099 0.21658002 -0.04133385 -0.0070797154 -0.039841782 -0.046613544
0.29546577 -0.063043885 -0.09295543 0.30554244 0.0674605 0.029717786 -0.11641541 -0.13522707
-0.23905572 -0.020906433 0.046033695 -0.14049427 0.2801223 0.33193883 0.039738834 0.01710679
-0.03066552 -0.086707376 -0.06852713 0.09382217 0.081510045 0.014337766 0.076598436 -0.06929959
-0.06958339 -0.10195329 -0.007459612 -0.09147233
00000000: e325 34bd c45a f83d 5603 cdbb 4635 743e
00000010: ccca f8bd e473 a23c fdd2 aebd 60f9 5ebd
00000020: 1434 723d 3d9f b2bd 6c8b 35bd 7a34 8abb
00000030: 0480 a23e 8164 20be fad8 76bd f9de 153d
00000040: a382 0d3e e8d0 1b3e d5c2 dd3d e8c6 01bd
00000050: f73a 673d b2a6 81bd 2217 c53d f5f6 3e3e
00000060: c897 8abc ee87 10bd fe4c e73e 79e6 dd3d
00000070: be2b a0bd 44fb 8dbd 6d3d 06be d2ba ab3d
00000080: 9d7d 4cbd 5d56 91bd 43ac 493d d9fa 0f3e
00000090: abfb 9a3d f014 dc3d 6330 e43e 2182 133e
000000a0: 3c3b cdbd df28 2ebc 417e 0d3d 737f 3cbd
000000b0: 3169 803e 4fd3 bd3d 5ec2 3cbd 8742 6f3d
000000c0: c745 b6bc 43eb 89bd 56f9 253d 27c7 5d3e
000000d0: af4d 29bd f5fc e7bb 2331 23bd d8ed 3ebd
000000e0: 4a47 973e 271d 81bd 6b5f bebd 0f70 9c3e
000000f0: bb28 8a3d b772 f33c 346b eebd f778 0abe
00000100: 06cb 74be f843 abbc d48d 3c3d bbdd 0fbe
00000110: 316c 8f3e e3f3 a93e 30c5 223d 8a23 8c3c
00000120: 4236 fbbc a393 b1bd f457 8cbd d625 c03d
00000130: bdee a63d f3e8 6a3c a4df 9c3d f2ec 8dbd
00000140: bd81 8ebd e3cc d0bd c36f f4bb d855 bbbd

fc3.weight f4 [10, 84]
-0.044761315 0.08354149 0.21471937 -0.2724252 -0.07223624 -0.10609809 0.032659855 0.075480625
0.13197134 0.23479226 0.10815566 0.084984824 -0.16743958 -0.016286917 -0.042781506 -0.11183915
0.14597319 -0.03059221 -0.08745467 -0.024560552 -0.01803174 0.04298003 0.07147204 0.20183998
0.0792198 0.017279888 -0.2834056 0.19705231 -0.070128836 -0.12724873 0.17405872 -0.11242696
-0.058230188 0.061554413 0.050015286 -0.0051076734 0.028830877 -0.024882013 -0.20767416 0.18178459
0.042641938 0.10317839 -0.040751845 -0.060942393 0.19420943 -0.09291186 0.010492522 -0.06842784
-0.033789944 -0.009747641 0.0830646 0.15454248 0.14234595 -0.07045334 -0.002816472 -0.031907517
-0.22857428 -0.060584545 -0.09569023 0.27442956 0.091665894 0.041428935 0.052243613 -0.020730425
0.15298198 0.051889226 0.07452125 0.0090883905 0.15280119 -0.09211921 0.36231235 0.13612674
0.061319817 0.021902699 0.018801982 0.10113391 -0.06491757 0.073566064 0.07184075 0.08225309
-0.1520733 -0.07985647 -0.025466142 -0.08605821 -0.027093183 0.06545462 0.06677132 -0.3897617
-0.044348992 0.053206656 0.17059056 -0.009688215 0.15782273 -0.0391115 -0.09857266 0.10106433
-0.27944618 0.15745927 -0.055237096 -0.14790034 0.019675307 -0.16700019 0.059541002 0.050187502
0.022839598 0.035655934 -0.14931695 0.2135872 0.24138889 -0.09458293 -0.0050342726 -0.07052909
0.032588057 0.31743097 -0.10544257 -0.12672748 0.006673487 -0.0700064 -0.05348293 0.03012278
0.14948988 -0.14758374 -0.35027248 -0.008173618 0.124646105 0.03579495 0.03023528 0.108523846
-0.19231084 -0.32292786 0.24123827 -0.018073596 -0.07744509 -0.011989142 0.15716061 -0.022462655
-0.19967444 -0.108591065 -0.056631275 0.07074123 -0.0897408 0.06950924 -0.016646514 -0.043846693
-0.015432515 -0.028499898 -0.02233084 0.19757721 0.27179083 0.043318707 0.23331776 -0.09881425
-0.13118997 -0.3532105 -0.101294875 0.07027909 0.3350659 0.0037835808 0.09155176 -0.15195756
-0.048474934 0.13036507 0.24672209 -0.08193556 0.1282725 0.03501861 -0.09754157 -0.024071146
-0.12202455 -0.14645927 0.02001533 -0.006338406 -0.09269559 -0.032707416 -0.10163705 0.1486182
-0.088451825 0.016393505 0.034794033 -0.083496526 0.12144841 -0.07137701 0.057580687 -0.058050256
-0.15442842 -0.051353686 -0.03670544 -0.06872193 0.20935091 -0.20478122 0.16819341 -0.016762929
0.04797172 0.03543129 0.12180314 0.26457095 0.064404316 0.06954452 0.14566064 0.01394921
0.032096963 0.043039516 0.09527862 0.24155793 -0.064027645 0.014207392 0.324074 -0.19612052
-0.104502626 -0.10756271 -0.046566196 0.08233036 0.17275874 0.21217985 -0.07647402 -0.070596196
-0.083313465 -0.047999755 -0.06580151 0.13276257 -0.07660448 -0.07642031 -0.09106145 -0.028131885
0.042331915 0.05955756 0.004056462 0.1338243 0.14967728 -0.10768506 -0.13531326 0.04325579
-0.08794677 0.0833012 -0.05702849 -0.26126298 0.23564601 0.0827502 0.24859534 0.045364734
-0.018630605 -0.027719362 0.034191474 0.05882245 0.0122279655 -0.2172139 -0.025438203 0.1856158
-0.016092427 0.16754523 -0.06025532 -0.03128968 0.1402691 -0.020417266 -0.13493732 0.15793625
00000000: a457 37bd cd17 ab3d 65df 5b3e 517b 8bbe
00000010: 98f0 93bd f549 d9bd 57c6 053d 9695 9a3d
00000020: 7f23 073e 626d 703e b780 dd3d 860c ae3d
00000030: 4875 2bbe 246c 85bc a93b 2fbd ed0b e5bd
00000040: ff79 153e 849c fabc 6f1b b3bd 3633 c9bc
00000050: 4db7 93bc d40b 303d ef5f 923d 24af 4e3e
00000060: fe3d a23d 8d8e 8d3c 8a1a 91be 15c8 493e
00000070: b59f 8fbd 7e4d 02be 733c 323e 1b40 e6bd
00000080: c782 6ebd 7b20 7c3d d4dc 4c3d 455e a7bb
00000090: bb2e ec3c 5dd5 cbbc 89a8 54be bd25 3a3e
000000a0: 50a9 2e3d 314f d33d 68eb 26bd bb9e 79bd
000000b0: d6de 463e 9348 bebd d4e8 2b3c e523 8cbd
000000c0: 5367 0abd 92b4 1fbc c61d aa3d 6240 1e3e
000000d0: 23c3 113e d749 90bd 8f94 38bb 75b1 02bd
000000e0: 600f 6abe 8027 78bd 3df9 c3bd 0882 8c3e
000000f0: 54bb bb3d 63b1 293d 66fd 553d dad2 a9bc
00000100: 4fa7 1c3e cc89 543d 999e 983d 79e7 143c
00000110: ea77 1c3e ffa8 bcbd 0181 b93e cf64 0b3e
00000120: 7d2a 7b3d 4a6d b33c 9d06 9a3c 4c1f cf3d
00000130: 81f3 84bd cea9 963d 3e21 933d 4f74 a83d
00000140: 1ab9 1bbe ca8b a3bd 5f9e d0bc 493f b0bd
00000150: 86f2 ddbc 120d 863d 67bf 883d d88e c7be
00000160: 4aa7 35bd 39ef 593d 4baf 2e3e 52bb 1ebc
00000170: 489c 213e 6133 20bd 76e0 c9bd d1fa ce3d
00000180: 9213 8fbe 013d 213e 4b40 62bd 3073 17be
00000190: 1c2e a13c 1902 2bbe 44e1 733d 6991 4d3d
000001a0: 1c1a bb3c f50b 123d 8be6 18be 9ab6 5a3e
000001b0: a62e 773e b2b4 c1bd 8af6 a4bb 8e71 90bd
000001c0: 0e7b 053d 5086 a23e 46f2 d7bd d9c4 01be
000001d0: 44ad da3b 845f 8fbd eb10 5bbd 0cc4 f63c
000001e0: e013 193e 3120 17be ea56 b3be a3ea 05bc
000001f0: 7546 ff3d ba9d 123d faaf f73c c041 de3d
00000200: 22ed 44be cd56 a5be 2a07 773e 140f 94bc
00000210: 889b 9ebd 1b6e 44bc b6ee 203e 9a03 b8bc
00000220: 7577 4cbe fe64 debd 32f6 67bd c7e0 903d
00000230: 06ca b7bd dc5a 8e3d 455e 88bc 9798 33bd
00000240: a9d8 7cbc 9e78 e9bc 2aef b6bc ae51 4a3e
00000250: 2b28 8b3e f56e 313d daea 6e3e 205f cabd
00000260: aa56 06be 02d8 b4be b073 cfbd 7cee 8f3d
00000270: c28d ab3e f4f5 773b 7d7f bb3d c39a 1bbe
00000280: a78d 46bd 6c7e 053e b7a4 7c3e d5cd a7bd
00000290: de59 033e ad6f 0f3d e0c3 c7bd da30 c5bc
000002a0: 02e8 f9bd 6bf9 15be 30f7 a33c 67b2 cfbb
000002b0: 2fd7 bdbd 36f8 05bd 1627 d0bd 5f2f 183e
000002c0: 3b26 b5bd ac4b 863c 3084 0e3d 3a00 abbd
000002d0: f2b9 f83d 1c2e 92bd bad9 6b3d 1bc6 6dbd
000002e0: 7c22 1ebe 3e58 52bd 7258 16bd 15be 8cbd
000002f0: 1660 563e 2bb2 51be e53a 2c3e 6952 89bc
00000300: ff7d 443d 6620 113d ed73 f93d d875 873e
00000310: 69e6 833d 5b6d 8e3d 1028 153e 3a8b 643c
00000320: 1b78 033d 344a 303d 7021 c33d f65a 773e
00000330: ed20 83bd 1fc6 683c 07ed a53e d1d3 48be
00000340: 7905 d6bd d749 dcbd 32bc 3ebd d29c a83d
00000350: abe7 303e ad45 593e 699e 9cbd bd94 90bd
00000360: 40a0 aabd 649b 44bd f1c2 86bd e9f2 073e
00000370: cfe2 9cbd 4082 9cbd 6d7e babd d774 e6bc
00000380: 3b64 2d3d a1f2 733d 12ec 843b 3d09 093e
00000390: 0045 193e fc89 dcbd 8f8f 0abe fc2c 313d
000003a0: 701d b4bd d299 aa3d b596 69bd 43c4 85be
000003b0: 304d 713e f078 a93d c78f 7e3e 5fd0 393d
000003c0: 369f 98bc b713 e3bc 5c0c 0c3d cfef 703d
000003d0: ce57 483c 526d 5ebe c763 d0bc 1112 3e3e
000003e0: 44d4 83bc fa90 2b3e 48ce 76bd 9c29 00bd
000003f0: b4a2 0f3e 1c42 a7bc 022d 0abe 0aba 213e

fc3.bias f4 [10]
-0.19495012 -0.4660568 0.26829112 0.07343899 0.53955567 -0.2019567 0.13625038 -0.3313301
0.22901723 -0.29116762
00000000: 01a1 47be ff9e eebe 745d 893e 2e67 963d
00000010: 5220 0a3f bdcd 4ebe 3885 0b3e 19a4 a9be
00000020: 7e83 6a3e ec13 95be
