examples/models/cifar/cifar_net_10.pth (torch, 250887 bytes, 10 tensors)

conv1.weight f4 [6, 3, 5, 5]
0	0xbe87e7c2	-0.26544005
1	0xbd7ee10b	-0.062226336
2	0xbed65b40	-0.41866493
3	0xbf3685ba	-0.712978
4	0xbebd545b	-0.3697842
5	0xbd5aa75e	-0.05338227
6	0xbf0c8776	-0.54894197
7	0xbf4fe68a	-0.8121115
8	0xbea54488	-0.32278848
9	0x3ddd719e	0.108126864
10	0xbda502e3	-0.08057191
11	0xbd932495	-0.07184712
12	0x3e116722	0.14199498
13	0x3f295b31	0.6615477
14	0x3e93e53e	0.28885835
15	0xbe153bdb	-0.14573614
16	0x3eca651f	0.39530274
17	0x3f486226	0.7827476
18	0x3ec66447	0.3874838
19	0x3dbcc72d	0.09217677
20	0x3e9608b1	0.29303506
21	0x3ec3e46e	0.38260216
22	0x3e74d4b3	0.23909263
23	0x3e695b95	0.22788842
24	0x3e96a9c2	0.2942639
25	0x3d669971	0.056298677
26	0x3e2d76c1	0.16939832
27	0xbe0c3055	-0.13690312
28	0xbec9266c	-0.39287126
29	0xbd071f2d	-0.032988716
30	0x3eba906a	0.36438304
31	0xbe8a64f2	-0.2703014
32	0xbf15ffb1	-0.5859328
33	0xbe0d64c3	-0.13807969
34	0x3e83061e	0.25590605
35	0x3e11ae28	0.14226592
36	0xbdf732e7	-0.12070256
37	0x3e983061	0.2972441
38	0x3f0581bb	0.5215108
39	0x3e4218e0	0.18954802
40	0xbe7b9470	-0.24568343
41	0x3dc8f762	0.098128095
42	0x3f02a3e7	0.51031345
43	0x3d1a95a5	0.03774037
44	0xbebf9d02	-0.37424475
45	0x3dfb3489	0.1226588
46	0x3e169aca	0.14707485
47	0xbe6a581f	-0.22885178
48	0xbe437773	-0.19088535
49	0xbe7f3804	-0.24923712
50	0xbc6e8451	-0.014557914
51	0x3e7b9b59	0.24570979
52	0xbc96d8fd	-0.018414015
53	0xbec8d57f	-0.39225385
54	0x3dad29bf	0.08455228
55	0x3e722edb	0.23650686
56	0xbec2b889	-0.38031414
57	0xbf205ac9	-0.6263853
58	0xbe7ce3b2	-0.24696234
59	0x3ec43180	0.38319016
60	0xbc115e1a	-0.008872533
61	0xbeac2b32	-0.33626705
62	0x3e38a8e5	0.18033178
63	0x3f33742b	0.70099133
64	0x3e7ceefe	0.24700543
65	0xbeb665a8	-0.35624433
66	0xbd204ec6	-0.039137624
67	0x3ef7aafe	0.48372644
68	0x3e5adcf4	0.2137335
69	0xbe10e4a3	-0.14149718
70	0x3cbe689c	0.023243241
71	0x3e1596ce	0.14608309
72	0xbe661570	-0.22469115
73	0xbeb2906b	-0.34875807
74	0x3cae1269	0.021249013
75	0x3eac362d	0.33635083
76	0xbf15991a	-0.5843674
77	0x3f0f1ad9	0.5590034
78	0x3ce65a37	0.02811919
79	0x3d445314	0.047930792
80	0x3e295906	0.16537866
81	0xbf901d4d	-1.1258942
82	0x3f49ddda	0.78854144
83	0x3d6bdb93	0.05758245
84	0xbe02c5e7	-0.12770806
85	0x3e50cddf	0.20391034
86	0xbf9b0490	-1.2110767
87	0x3f8f136b	1.1177801
88	0xbd238fb4	-0.039931968
89	0xbeb98431	-0.36233667
90	0x3dd19684	0.10233787
91	0xbf7d795c	-0.99013305
92	0x3f8c960f	1.0983294
93	0xbd822cfd	-0.06356237
94	0xbf0a575d	-0.54039556
95	0x3dfc2323	0.12311389
96	0xbede3b47	-0.434046
97	0x3f4a6692	0.7906276
98	0xbe613639	-0.2199334
99	0xbe38d87e	-0.18051335
100	0x3eb0dcc8	0.34543443
101	0xbf0794d4	-0.5296147
102	0x3ec9f31d	0.39443293
103	0xbde2d1a5	-0.11075143
104	0xbddf4837	-0.10902446
105	0x3eaf7eef	0.3427653
106	0xbf6f50ba	-0.93482554
107	0x3f55821c	0.83401656
108	0xbdfe3960	-0.12413287
109	0xbebd3bdb	-0.3695973
110	0x3f041a16	0.51602304
111	0xbf889b7a	-1.0672448
112	0x3f961146	1.1724021
113	0x3e63416d	0.22192927
114	0xbec41fa8	-0.38305402
115	0x3e72f31a	0.23725548
116	0xbf6cf7d6	-0.9256567
117	0x3f9f7ff3	1.2460922
118	0x3cea5724	0.028606005
119	0xbecee1de	-0.40406698
120	0x3e7c5991	0.24643542
121	0xbee60ce2	-0.44931704
122	0x3f5b84e1	0.8574963
123	0xbe90c598	-0.28275752
124	0xbe9f9856	-0.3117091
125	0x3e17b3ec	0.14814728
126	0xbf2ec5fa	-0.6827084
127	0x3ebfb117	0.37439796
128	0xbddf7804	-0.10911563
129	0xbe1c33ea	-0.15254179
130	0x3e82218e	0.25416225
131	0xbf7443f3	-0.9541618
132	0x3f1d73b3	0.6150467
133	0x3dcecc65	0.10097579
134	0xbe698d21	-0.22807743
135	0x3e8ba123	0.27271375
136	0xbf7a8109	-0.9785314
137	0x3f871bb3	1.0555328
138	0x3e16eea7	0.14739476
139	0xbe7b64cf	-0.24550174
140	0x3e0b07bc	0.13577169
141	0xbf81e1e7	-1.0147065
142	0x3f96d955	1.1785074
143	0xbcd2f737	-0.025752647
144	0xbebcb0b0	-0.36853552
145	0xbd7b50ab	-0.061356228
146	0xbf10d82f	-0.5657987
147	0x3f573fa9	0.8408151
148	0xbe95fbd4	-0.29293692
149	0xbe2cee59	-0.16887797
150	0x3ebe3680	0.37150955
151	0x3e8a7912	0.27045494
152	0x3ec3f0c9	0.38269642
153	0x3ebcf938	0.3690889
154	0x3dfe1a1b	0.12407323
155	0x3e5bf332	0.2147949
156	0x3e873947	0.26410887
157	0x3e829825	0.25506702
158	0x3f026576	0.5093607
159	0x3dfb338b	0.122656904
160	0xbe1a8fe7	-0.15093957
161	0x3d637689	0.055532966
162	0x3ea04cb4	0.3130852
163	0x3edef359	0.43545035
164	0x3e0957a7	0.13412343
165	0xbe171c63	-0.14756922
166	0x3d16afe2	0.03678883
167	0x3d54fef5	0.05200096
168	0x3e81de9e	0.25365156
169	0x3d9d4c0e	0.07680522
170	0xbeebe41a	-0.46072465
171	0xbe11a1dd	-0.14221902
172	0xbe4c293a	-0.19937602
173	0xbe31e6aa	-0.17373148
174	0xbe8267a3	-0.25469694
175	0xbf255ca5	-0.6459449
176	0xbf146b01	-0.57975775
177	0xbee9e86e	-0.45685142
178	0xbe331536	-0.1748856
179	0xbe4c9dc5	-0.1998206
180	0xbf4c4e0d	-0.79806596
181	0xbf246e97	-0.64231247
182	0xbe42bdee	-0.19017765
183	0xbcee2f50	-0.029075295
184	0xbe36432e	-0.17799065
185	0xbf51b115	-0.8191083
186	0xbea48794	-0.32134688
187	0xbccca807	-0.024982465
188	0x3d3e2372	0.046420522
189	0xbd89adc4	-0.06722596
190	0xbf361366	-0.7112335
191	0xbe42ff79	-0.19042768
192	0xbd3d03d8	-0.046146244
193	0x3e0d5af5	0.13804229
194	0x3ddcce78	0.10781568
195	0xbea76a98	-0.32698512
196	0x3cb44827	0.022007061
197	0x3e35eb69	0.17765583
198	0x3d90163f	0.07035493
199	0x3e6940cd	0.22778626
200	0xbe1521dc	-0.14563698
201	0x3cc13075	0.023582676
202	0x3ea0d133	0.31409606
203	0x3e331f72	0.17492464
204	0x3db107bd	0.08644054
205	0xbeb64b6d	-0.3560442
206	0xbe006778	-0.1253947
207	0x3e69adbb	0.22820179
208	0x3e99ea27	0.30061457
209	0x3e0ac92e	0.13553306
210	0xbf192d6f	-0.5983495
211	0xbe2623e1	-0.16224624
212	0x3e80a0c5	0.25122657
213	0x3e8b19cf	0.27168128
214	0x3d8be941	0.06831599
215	0xbee58146	-0.4482519
216	0x3db5254e	0.08845006
217	0x3e6ddd23	0.23228888
218	0x3e81ef50	0.25377893
219	0x3e290d39	0.1650895
220	0x3d88639b	0.06659623
221	0x3e635284	0.22199446
222	0x3edf26ac	0.43584192
223	0x3eaeb6b3	0.34123763
224	0x3e4cf080	0.20013618
225	0xbcf6e504	-0.0301385
226	0xbe5a3c8e	-0.21312162
227	0xbc882f6f	-0.01662418
228	0xbeaafbbe	-0.3339519
229	0xbd91674b	-0.0709978
230	0x3f182b8e	0.5944146
231	0x3f402caa	0.7506815
232	0x3f5ab74b	0.8543593
233	0x3f1f64df	0.6226329
234	0x3ee1b66a	0.44084483
235	0x3ebd4602	0.36967474
236	0x3f240326	0.64067304
237	0x3f871b54	1.0555215
238	0x3f32419b	0.69631356
239	0x3e9e067d	0.30864325
240	0xbe853773	-0.26018867
241	0xbe844751	-0.2583566
242	0xbeef4b28	-0.46737027
243	0xbed83828	-0.42230344
244	0xbf20d417	-0.62823623
245	0xbeb5807e	-0.35449594
246	0xbe9174de	-0.28409475
247	0xbf006459	-0.5015312
248	0xbf0203e7	-0.50787205
249	0xbf38f4ca	-0.7224852
250	0xbdac0229	-0.083988495
251	0xbec8170b	-0.3908008
252	0xbdc25c7f	-0.094902985
253	0xbe73c663	-0.23806147
254	0x3dc027cd	0.093825914
255	0x3d5c6e65	0.053816218

conv1.bias f4 [6]
0	0xbed135ef	-0.4086146
1	0xbf201da8	-0.6254525
2	0xbe962c92	-0.2933088
3	0xbf61ab78	-0.88152266
4	0x3ec9de2c	0.39427316
5	0xbf1aaee0	-0.6042309

conv2.weight f4 [16, 6, 5, 5]
0	0xbe0f476a	-0.13992086
1	0xbcb0ad57	-0.02156703
2	0x3d8660a1	0.06561399
3	0xbdb67083	-0.08908179
4	0x3d984d3b	0.074366055
5	0x3e371496	0.17878947
6	0x3d87a744	0.066237
7	0x3cdbc7d3	0.026828682
8	0xbcd99dd2	-0.026564512
9	0x3dd2444b	0.10266932
10	0xbe3ef0a9	-0.18646492
11	0x3df1e590	0.11811364
12	0x3e01c5f8	0.12673175
13	0x3e65b9b7	0.22434126
14	0x3da33c50	0.07970488
15	0xbdb7f39c	-0.08982012
16	0x3dd53b61	0.10411716
17	0x3dd149c7	0.1021915
18	0x3c8fdf3f	0.017562507
19	0xbe80c8b4	-0.25153124
20	0xbe014331	-0.12623288
21	0xbe1d90d1	-0.15387274
22	0x3ca7871b	0.020450165
23	0xbd4a235b	-0.049350124
24	0xbd8ecb78	-0.06972402
25	0xbe046c20	-0.12931871
26	0xbead4c11	-0.33847097
27	0xbdd99ea6	-0.10625963
28	0x3d6e505e	0.058182113
29	0xbe830364	-0.25588524
30	0xbdad4e50	-0.084622025
31	0xbeb6a497	-0.35672447
32	0xbefc252b	-0.49247107
33	0xbe5afdbf	-0.21385859
34	0xbdfc57cb	-0.12321433
35	0xbe00db8c	-0.1258375
36	0xbea48daa	-0.3213933
37	0xbef998ec	-0.48749483
38	0xbe35a891	-0.17740084
39	0xbc07c81f	-0.008287459
40	0xbe983289	-0.29726055
41	0xbeae8190	-0.34083223
42	0xbe706d8d	-0.2347929
43	0xbdef072f	-0.11671292
44	0xbdc31284	-0.09525016
45	0xbe1078e6	-0.14108619
46	0xbecd63b4	-0.4011513
47	0xbe8553a8	-0.26040387
48	0xbe40fe83	-0.18847089
49	0xbe6a7fb2	-0.22900274
50	0x3dcaaf19	0.098966785
51	0x3dbd32db	0.092382155
52	0x3e844299	0.2583206
53	0x3e3489d4	0.17630702
54	0xbc6c3110	-0.014415994
55	0x3dd9de90	0.106381536
56	0xbdf0da51	-0.117603905
57	0x3e291c2a	0.1651465
58	0x3ebace4d	0.3648552
59	0x3e8f0b18	0.2793815
60	0x3e8dc276	0.27687424
61	0x3caca503	0.021074777
62	0x3c693af5	0.014235248
63	0x3e912ebb	0.28355965
64	0x3ec695cf	0.3878617
65	0x3eff1790	0.49822664
66	0x3e7aa63c	0.24477476
67	0x3d970354	0.07373682
68	0xbdac3889	-0.08409221
69	0x3bb74ad0	0.005593635
70	0x3d813482	0.06308843
71	0x3e14f79f	0.14547585
72	0x3dcfb7d8	0.10142487
73	0xbe952c62	-0.29135424
74	0xbe7e9487	-0.24861346
75	0xbe502ef3	-0.2033041
76	0x3e31dcd9	0.17369403
77	0x3e703a57	0.23459755
78	0x3df83d31	0.12121046
79	0xbd1cbf7e	-0.03826856
80	0xbdc8e37b	-0.098090135
81	0xbca327d4	-0.019916452
82	0x3e322269	0.17395939
83	0x3e4c0c8c	0.19926661
84	0xbc857762	-0.016292278
85	0x3d88d837	0.06681865
86	0x3d03909c	0.032120332
87	0xbb96c4ae	-0.0046010828
88	0xbd940aba	-0.072286084
89	0x3dbf9bf5	0.09355918
90	0x3e563bd1	0.20921256
91	0xbda621f3	-0.08111944
92	0xbdf5181e	-0.119674906
93	0xbdba8ded	-0.091091014
94	0xbd58ab1c	-0.052897558
95	0xbe3b6db1	-0.18303563
96	0x3b80ee97	0.003934692
97	0x3e28e789	0.16494574
98	0xbd41ca5b	-0.04731212
99	0xbe5886da	-0.21145192
100	0x3e1437c1	0.14474393
101	0xbbc18d45	-0.005906733
102	0x3e0ae1a6	0.1356264
103	0xbbf8d8c3	-0.0075941994
104	0x3d84ddde	0.0648763
105	0x3dd8a633	0.10578575
106	0xbd37b1b6	-0.044847213
107	0xbdc7c628	-0.09754592
108	0xbd580c71	-0.05274624
109	0xbd9b2ab8	-0.07576507
110	0x3d861fcd	0.06549034
111	0xbdc40b7b	-0.09572502
112	0xbdc44840	-0.09584093
113	0xbdbb7d46	-0.091547534
114	0xbdab1637	-0.083538465
115	0x3d804087	0.062623076
116	0x3d53c5f8	0.05170247
117	0x3c0cf604	0.008603577
118	0xbcac7ffa	-0.021057118
119	0xbd8b0909	-0.06788833
120	0x3ea3d8e0	0.320014
121	0x3e593fba	0.21215716
122	0x3e7087bb	0.23489277
123	0x3e8d7fc7	0.2763655
124	0x3e817d47	0.25290892
125	0x3e2377cd	0.15963669
126	0x3c67b0e7	0.014141298
127	0xbdba8205	-0.091068305
128	0xbe9d3f7e	-0.30712503
129	0xbe203f31	-0.15649106
130	0xbe185a2f	-0.14878152
131	0xbe0ef297	-0.13959728
132	0xbe486255	-0.1956876
133	0xbe262f38	-0.1622895
134	0xbe84164e	-0.25798267
135	0xbe4da737	-0.20083319
136	0xbe95e4cd	-0.29276124
137	0xbecfb8c9	-0.40570667
138	0xbea41009	-0.32043484
139	0xbe10d6de	-0.14144465
140	0xbe734f8c	-0.23760813
141	0xbeb0587f	-0.34442517
142	0xbee8bfa2	-0.45458704
143	0xbdd4c24a	-0.1038862
144	0x3e1564ba	0.14589205
145	0x3e5b1d9a	0.21398011
146	0xbe274d05	-0.16337974
147	0xbebaca4d	-0.36482468
148	0xbebd9042	-0.37024122
149	0xbe2529ec	-0.16129273
150	0xbe52e5a0	-0.20595407
151	0xbc9961d3	-0.018723404
152	0x3e3d134f	0.18464397
153	0xbe1bca10	-0.152138
154	0xbe198135	-0.14990695
155	0x3ddec934	0.1087822
156	0xbd7d460a	-0.061834373
157	0xbe1f79f0	-0.15573859
158	0xbcc594dc	-0.024118833
159	0xbdd75115	-0.10513512
160	0xbc7e5c9c	-0.0155250095
161	0x3d8411b7	0.06448691
162	0x3e037c1a	0.1284031
163	0x3dca88ef	0.09889399
164	0xbde7ca9c	-0.113179415
165	0xbed43765	-0.41448513
166	0xbd87d73c	-0.066328496
167	0xbd36df7f	-0.044646736
168	0x3e0b1269	0.13581242
169	0x3dff367e	0.124615654
170	0xbecdee9c	-0.40221107
171	0xbed246d7	-0.41069672
172	0xbdbb23f1	-0.09137715
173	0xbd8cef30	-0.06881559
174	0x3e1f7346	0.15571317
175	0xbe01b6cc	-0.12667388
176	0x3c18971a	0.009313369
177	0x3d75d7c7	0.060020234
178	0x3db8a38f	0.09015571
179	0xbe09fdea	-0.13475767
180	0xbddea62b	-0.10871538
181	0xbe69abde	-0.22819468
182	0xbdc29327	-0.09500723
183	0x3a892f0f	0.0010466295
184	0x3df97fd1	0.12182582
185	0xbeab9691	-0.3351331
186	0xbe6adbe0	-0.22935438
187	0xbe98d15c	-0.2984723
188	0xbd15621b	-0.036470514
189	0x3e190869	0.14944614
190	0xbeb5bf65	-0.35497585
191	0xbe4a39e9	-0.19748653
192	0xbee0b7db	-0.4389027
193	0xbe297309	-0.16547789
194	0x3e22561d	0.15853162
195	0xbe5d20f8	-0.21594608
196	0xbea51fc1	-0.3225079
197	0xbec2b596	-0.38029164
198	0xbe4216ff	-0.18954085
199	0x3c7c847b	0.015412445
200	0xbddbb08d	-0.10727034
201	0x3e7f2422	0.24916127
202	0x3be82995	0.007085035
203	0xbdbb2241	-0.09137393
204	0xbe229c62	-0.15879968
205	0xbe6cc397	-0.23121487
206	0xbd8b1182	-0.06790449
207	0xbc3c7c63	-0.0115042655
208	0xbdbaa616	-0.0911371
209	0x3d25f93d	0.040520895
210	0xbea1e31f	-0.31618592
211	0xbe7931a0	-0.24335337
212	0xbe2231db	-0.15839331
213	0xbd33d9de	-0.043908946
214	0x3e4d8f55	0.20074208
215	0xbe25edf0	-0.16204047
216	0xbdd4d5da	-0.103923514
217	0xbe89e7ab	-0.2693456
218	0xbe3fb39a	-0.18720856
219	0x3e38e71c	0.18056911
220	0x39b56228	0.00034596142
221	0xbe21c3ad	-0.157973
222	0xbe911434	-0.28335726
223	0xbe86a556	-0.26298016
224	0xbdb21bab	-0.086966835
225	0x3d0f8094	0.03503473
226	0x3e253a75	0.16135581
227	0x3da60224	0.08105877
228	0xbdef5939	-0.1168694
229	0xbe8061f7	-0.2507474
230	0xbd83e6ef	-0.064405315
231	0x3e03e256	0.12879309
232	0x3ea7eada	0.32796365
233	0x3e0309fa	0.12796775
234	0xbe2b533f	-0.16730975
235	0xbeadfcc5	-0.3398191
236	0xbe18b88f	-0.14914154
237	0x3b4fc117	0.0031700784
238	0xbdb6cd6f	-0.08925902
239	0x3dd96d90	0.106166005
240	0xbefcae6a	-0.49351817
241	0xbe982145	-0.29712883
242	0xbe55583c	-0.2083444
243	0xbe207abc	-0.1567182
244	0xbbb3dac1	-0.005488724
245	0xbed0a5c8	-0.4075148
246	0xbeaefc18	-0.34176707
247	0xbdd3ba08	-0.10338217
248	0xbdfc296b	-0.12312587
249	0xbdb5bb3e	-0.08873604
250	0xbb8b17f8	-0.0042448007
251	0xbdb54529	-0.08851082
252	0x3e240ba6	0.16020069
253	0xbc966a3c	-0.018361203
254	0x3d55ddb5	0.05221339
255	0xbdf035ae	-0.117289886

conv2.bias f4 [16]
0	0x3f212808	0.6295171
1	0x3d9557d1	0.0729214
2	0xbf07a030	-0.529788
3	0xbf59391f	-0.84852785
4	0x3d7807bb	0.060554247
5	0xbecb3c3d	-0.39694396
6	0x4010bfbe	2.261703
7	0x3f6b46f3	0.91905135
8	0xbde9f3a0	-0.11423421
9	0xbf687df6	-0.908172
10	0x3e9d3820	0.30706882
11	0x3fa78011	1.3085958
12	0xbea2d327	-0.3180172
13	0x3eb543db	0.35403332
14	0x3f40031a	0.7500473
15	0xbfdcd962	-1.725384

fc1.weight f4 [120, 400]
0	0x3d9fcb21	0.07802416
1	0x3c88b9bf	0.016690133
2	0xbdbac257	-0.09119099
3	0xbd180a11	-0.037118975
4	0x3d929c82	0.07158758
5	0x3ddb101b	0.10696431
6	0x3d92f7f3	0.07176199
7	0xbcaf2231	-0.021378608
8	0x3d9a5e7a	0.07537551
9	0x3d5e57fe	0.054283135
10	0xbc93ce54	-0.01804272
11	0x3e410b10	0.18851876
12	0x3d5f134d	0.054461766
13	0x3d974511	0.0738622
14	0x3dcc2760	0.09968448
15	0xbdeea044	-0.11651662
16	0xbd2e091d	-0.04248916
17	0xbcef8260	-0.029236972
18	0xbd174ff8	-0.0369415
19	0xbd11c1c7	-0.03558519
20	0xbc69645c	-0.014245119
21	0xbcc5b7a2	-0.024135415
22	0x3c909f3a	0.01765405
23	0xbd08914a	-0.033341683
24	0xb987faa2	-0.00025935943
25	0xbc103068	-0.008800603
26	0xbd279a95	-0.040918905
27	0xbd14c131	-0.036317054
28	0xbdef2236	-0.11676447
29	0xbd2bedf5	-0.04197498
30	0x3d6f154e	0.058369927
31	0x3cec7136	0.028862577
32	0xbcccc01d	-0.02499395
33	0x3d0b475c	0.0340036
34	0x3c421222	0.0118451435
35	0x3d3c23a6	0.045932434
36	0x3d4e4bce	0.05036526
37	0x3de66825	0.11250333
38	0x3c5a0f1a	0.013309265
39	0x3d6a0fb3	0.05714388
40	0x3d8b2c5f	0.067955725
41	0xbb4e747b	-0.0031502533
42	0x3dcb3561	0.099222906
43	0xbd0e387f	-0.034721848
44	0x3e1ede95	0.15514596
45	0x3e0ec715	0.13943131
46	0xb9c7a9da	-0.00038082787
47	0xbc022f00	-0.007945776
48	0x3bbd5d0a	0.0057789134
49	0x3d80a9f1	0.06282414
50	0x3ddf81c7	0.10913425
51	0x3d9f1659	0.07767934
52	0xbdaf8f7d	-0.0857229
53	0xbe03735b	-0.12836973
54	0x3aca9e7d	0.001545861
55	0x3aec3a12	0.0018022677
56	0x3d711ed0	0.058867276
57	0xbe3c410b	-0.18384187
58	0x3d77f7eb	0.060539167
59	0xbd43df45	-0.04782035
60	0xbdc09102	-0.09402658
61	0xbdf90e80	-0.12160969
62	0xbe449cc8	-0.19200432
63	0xbc692ccd	-0.014231873
64	0xbd5f7806	-0.054557823
65	0xbd83a341	-0.064276226
66	0xbe398261	-0.18116142
67	0xbdffd8c3	-0.12492516
68	0xbde84a30	-0.11342275
69	0x3d83cdc9	0.06435735
70	0xbe72909f	-0.23687981
71	0xbe4a557c	-0.19759172
72	0xbde02dfe	-0.10946272
73	0xbe000fa6	-0.1250597
74	0xbd82f8e6	-0.0639513
75	0x3b815ff5	0.0039482065
76	0xbcba9048	-0.022773877
77	0x3d30e378	0.04318568
78	0x3d857f7a	0.06518455
79	0x3e1235ae	0.1427829
80	0x3dc64246	0.096806094
81	0x3d0c51e3	0.03425778
82	0x3d607778	0.054801434
83	0xbd4bd870	-0.049766958
84	0x3d9a6e81	0.07540608
85	0x3d8791c8	0.066196024
86	0x3d6a824b	0.057253163
87	0xbd39786a	-0.04528085
88	0xbc35472d	-0.011064333
89	0x3d2b1839	0.041771147
90	0xbdc3b79d	-0.09556506
91	0x3da30741	0.07960368
92	0xbde6fd34	-0.112787634
93	0xbce74de2	-0.02823538
94	0x3b1f8626	0.0024341433
95	0xbbcd6d41	-0.0062691276
96	0x3dec90a8	0.115510285
97	0xbc6ff8e9	-0.014646747
98	0xbd13b5f0	-0.03606218
99	0xbcee20ef	-0.029068438
100	0xbe21cf68	-0.15801775
101	0xbdf8f456	-0.121559784
102	0xbd34ef43	-0.04417349
103	0x3da46935	0.08027879
104	0xbd3ebbc1	-0.046565775
105	0xbdcc0fea	-0.09963973
106	0xbc98cf34	-0.01865349
107	0xbd981b9f	-0.07427143
108	0xbdbc4daa	-0.09194501
109	0xbd5a8ea9	-0.053358708
110	0x3e22d5a9	0.15901817
111	0x3d13e80e	0.036109976
112	0x3ce3da85	0.02781416
113	0xbe209335	-0.15681155
114	0xbc1cdf5f	-0.00957474
115	0x3d7e745f	0.0621227
116	0xbd207d06	-0.03918173
117	0xbdd7fa64	-0.10545805
118	0xbdb4f4ef	-0.0883578
119	0x3d3f3561	0.046681765
120	0x3e0e4f34	0.13897401
121	0xbc87e664	-0.016589351
122	0xbdeb5073	-0.11489954
123	0xbd505c50	-0.050869286
124	0x3dc2d4a6	0.09513216
125	0x3c7b04ae	0.01532094
126	0x3db9267d	0.09040544
127	0x3d78c206	0.06073191
128	0xbdb46d55	-0.08809916
129	0xbe33f072	-0.17572191
130	0xbd0b6f20	-0.034041524
131	0x3d74b17a	0.059739567
132	0x3df944c5	0.1217132
133	0xbd0598b3	-0.03261633
134	0xbd61cd36	-0.055127345
135	0x3cef00ff	0.02917528
136	0x3e045346	0.12922391
137	0xbd3b3217	-0.045702066
138	0x3ce28d62	0.027655307
139	0x3c8bd79b	0.017070582
140	0x3dc1ef6a	0.09469493
141	0xbd27411f	-0.04083359
142	0x3c365470	0.01112853
143	0xbd2274ea	-0.03966228
144	0x3daa7d81	0.08324719
145	0x3d7db473	0.061939668
146	0x3cc3e976	0.023915034
147	0x3e2bb14d	0.16766854
148	0x3db66214	0.08905426
149	0x3db3db5c	0.08782074
150	0x3c6ccbc5	0.014452879
151	0xbdad58e3	-0.084642194
152	0xbe270857	-0.16311775
153	0xbe1d6a72	-0.15372637
154	0xbd6d33e6	-0.057910822
155	0xbe18dce9	-0.1492802
156	0xbdcd6c9c	-0.10030481
157	0x3cd27507	0.025690569
158	0xbe2142b8	-0.15748107
159	0xbd0be3c2	-0.034152754
160	0xbd10e150	-0.035371125
161	0xbdf5d5f0	-0.12003696
162	0xbd950418	-0.072761714
163	0x3d05a998	0.03263244
164	0x3d983dda	0.07433672
165	0x3bdf3148	0.0068112947
166	0x3c8c2cf3	0.017111277
167	0x3e01803e	0.12646577
168	0x3d4e566d	0.05037539
169	0x3e711952	0.23544815
170	0xbd898244	-0.06714299
171	0xbd286a1d	-0.041116823
172	0x3e2043be	0.15650842
173	0x3c3f590a	0.011678943
174	0x3e1e5c6c	0.15464944
175	0x3ddcd42f	0.10782658
176	0xbd74daca	-0.059778966
177	0xbe05052f	-0.12990259
178	0x3c140763	0.009034964
179	0xbc1f7a7f	-0.009733795
180	0x3db8bfd5	0.09020964
181	0xbd76665d	-0.060156215
182	0xbd0bc67d	-0.03412484
183	0x3a67df09	0.00088451855
184	0x3db9fbbb	0.09081217
185	0xbaaabc79	-0.001302614
186	0xbd8fd7c3	-0.07023575
187	0xbd9f5623	-0.07780101
188	0x3dbc42a2	0.09192397
189	0x3c8fc4a2	0.017549817
190	0x3cbfc664	0.02341003
191	0x3dc46773	0.09590044
192	0x3cf36fdb	0.029716423
193	0x3d94258a	0.072337225
194	0xbc6d5c29	-0.014487305
195	0xbe40ea5a	-0.18839398
196	0x3c85bcee	0.01632544
197	0xbc3d1ee5	-0.01154301
198	0x3b9b0b37	0.0047315615
199	0xbcfd1b4a	-0.030896802
200	0xbe5cc4f0	-0.215595
201	0xbdaf37a3	-0.08555534
202	0xbdacbe60	-0.08434749
203	0x3d6871f8	0.056749314
204	0xbe045ea2	-0.12926725
205	0xbb9bb4c5	-0.004751774
206	0xbcd3fb46	-0.025876652
207	0xbd1654b1	-0.03670186
208	0xbcf1242d	-0.029436195
209	0x3e1253f4	0.14289838
210	0x3da0a85b	0.07844611
211	0xbc65c538	-0.014024071
212	0xbd291c2e	-0.04128664
213	0xb9922665	-0.00027875896
214	0x3dfab387	0.122412734
215	0xbc8b0041	-0.016967895
216	0x3ca00c3f	0.01953709
217	0x3c5cd809	0.013479241
218	0xbd9dad7b	-0.076991044
219	0x3cefc160	0.029267013
220	0xbc6a3c0a	-0.014296541
221	0x3c643092	0.013927596
222	0x3de5e307	0.11224943
223	0xbb5ab4fd	-0.0033372038
224	0x3d18f06a	0.03733865
225	0x3e192970	0.14957213
226	0x3d7834b8	0.06059715
227	0x3c7d75c6	0.015469974
228	0x3d87d81b	0.06633016
229	0x3d80efe3	0.06295755
230	0xbd3645df	-0.044500228
231	0x3ad7abf0	0.001645444
232	0xbd09e3ae	-0.033664398
233	0xbd530dcc	-0.05152683
234	0xbdfafe35	-0.122555174
235	0x3e07c13f	0.13257311
236	0x3dff6cfa	0.124719575
237	0x3dc7d039	0.09756512
238	0x3c973341	0.018457057
239	0x3df58fc8	0.11990315
240	0x3dbfa7e7	0.09358197
241	0x3d8e9bef	0.06963336
242	0xbd197cb1	-0.03747243
243	0x3e0d7bf2	0.13816813
244	0x3de62eec	0.112394184
245	0xbe1a741d	-0.15083356
246	0xbdca73b3	-0.09885349
247	0xbdc986a4	-0.09840134
248	0xbca3e706	-0.020007621
249	0xbd20a183	-0.03921653
250	0x3c995009	0.018714922
251	0x3dbabec0	0.09118414
252	0xbdc33b10	-0.0953275
253	0xbdf394f4	-0.11893645
254	0xbd9a3575	-0.07529727
255	0x3cc9f71c	0.024653964

fc1.bias f4 [120]
0	0x3dc576b8	0.096417844
1	0xbd089814	-0.033348158
2	0xbd8173f3	-0.06320944
3	0xbe5aa3c2	-0.21351531
4	0x3e0278ef	0.12741445
5	0x3e5d1ce1	0.21593048
6	0xbd7da1fa	-0.06192205
7	0x3d21d7f8	0.039512604
8	0xbde692ec	-0.11258492
9	0xbd66af43	-0.056319486
10	0x3ea279fc	0.31733692
11	0xbb8799c3	-0.004138203
12	0x3ed90f08	0.4239428
13	0x3e5127e3	0.20425372
14	0x3dcc11bc	0.0996432
15	0x3e2fb064	0.17157131
16	0x3e0521c6	0.13001165
17	0x3e8136e6	0.25237197
18	0xbdf34afe	-0.11879538
19	0x3d8d1315	0.06888405
20	0x3dea7b5c	0.1144931
21	0xbde77490	-0.113015294
22	0x3d8bfaad	0.06834922
23	0x3d07ab86	0.033122562
24	0xbe39f603	-0.18160252
25	0x3d892d1f	0.06698059
26	0x3d0e2c6f	0.034710344
27	0x3e6dc24e	0.23218653
28	0xbd8b96aa	-0.06815846
29	0x3e4411b0	0.19147372
30	0xbd678cb6	-0.056530677
31	0x3e25e16b	0.16199271
32	0x3e2d14a2	0.16902402
33	0x3e2fcaba	0.17167178
34	0xbda7b162	-0.0818813
35	0x3e17183f	0.14755343
36	0xbda3c30f	-0.07996189
37	0xbe6f63a3	-0.23377852
38	0xbd867ce1	-0.065667875
39	0x3db13cb0	0.08654153
40	0x3de32248	0.11090523
41	0x3e6f4992	0.23367909
42	0xbe1dc642	-0.1540766
43	0x3d3754ed	0.044758726
44	0x3d3c21ff	0.04593086
45	0x3ceb098f	0.028691081
46	0xbe0f0d3e	-0.13969895
47	0xbe600819	-0.21878089
48	0x3e2a9f2c	0.16662282
49	0xbdd561ae	-0.104190215
50	0x3dbfa304	0.09357265
51	0x3d83dbb5	0.0643839
52	0xbd598a3c	-0.053110346
53	0x3e20637c	0.1566295
54	0xbdc77e0a	-0.09740837
55	0xbd382df8	-0.044965714
56	0x3eb50a33	0.35359344
57	0x3e60b556	0.21944174
58	0x3d9d83d5	0.076911606
59	0x3e464245	0.19361217
60	0xbceea33b	-0.029130569
61	0xbe70140d	-0.23445149
62	0xbc011ee1	-0.007880897
63	0x3e8c045d	0.2734708
64	0xbe2755ff	-0.16341399
65	0x3de2d61e	0.11075996
66	0xbda0e2be	-0.07855748
67	0x3d845264	0.06461027
68	0x3e5c1759	0.21493281
69	0x3c29e4ba	0.010369474
70	0x3d9ade94	0.07561985
71	0xbcac374b	-0.02102246
72	0x3e1e7a3c	0.15476316
73	0xbbd33ba2	-0.006446318
74	0xbc98433e	-0.018586751
75	0x3e63ad52	0.22234085
76	0x3e3c4f6b	0.1838967
77	0xbd78d4a7	-0.060749676
78	0x3cd70105	0.026245603
79	0x3cdb2818	0.026752517
80	0x3d728169	0.059205446
81	0x3dfff899	0.12498588
82	0xbd164481	-0.036686424
83	0xbdade099	-0.08490104
84	0x3d03b651	0.032156292
85	0x3e026128	0.12732375
86	0x3e894b79	0.26815394
87	0x3dc99264	0.09842375
88	0xbd0e902b	-0.034805458
89	0x3d026020	0.031829953
90	0x3c73a3f3	0.0148706315
91	0x3c8b9d15	0.017042676
92	0xbda93637	-0.08262294
93	0xbe131fba	-0.14367571
94	0x3d948df7	0.0725364
95	0xbc0391bb	-0.00803035
96	0xbdfdd2d6	-0.123937294
97	0xbde74b8f	-0.112937085
98	0x3eaa6951	0.33283475
99	0x3cb6fa35	0.022336105
100	0x3e14eafa	0.14542761
101	0x3eb51561	0.35367873
102	0xbde83cee	-0.113397464
103	0xbe0cea4c	-0.13761252
104	0x3dd36d2d	0.10323558
105	0xbe7789aa	-0.24173608
106	0xbd9cef28	-0.07662803
107	0x3e384ffd	0.17999263
108	0x3b91ad20	0.004445687
109	0x3d2e2fbb	0.042525988
110	0xbdfdcee1	-0.12392975
111	0xbea73c14	-0.32663023
112	0x3e5d4888	0.216097
113	0x3aad6ed8	0.0013231887
114	0x3e2c4681	0.1682377
115	0xbd917ec0	-0.07104254
116	0xbd5e3028	-0.054245144
117	0xbddd727e	-0.10812853
118	0xbe57e95d	-0.21085115
119	0xbd7acb55	-0.06122907

fc2.weight f4 [84, 120]
0	0xbe05699b	-0.13028567
1	0xbc9b3487	-0.018945945
2	0x3e19a869	0.1500565
3	0xbcaae236	-0.020859819
4	0x3df69feb	0.12042221
5	0x3dcb48a3	0.09925964
6	0xbe101a32	-0.14072493
7	0x3d67fdf3	0.05663867
8	0x3e62df41	0.22155477
9	0x3d8c0f08	0.068388045
10	0xbe4538fd	-0.1926002
11	0xbcd52b4f	-0.026021628
12	0xbe921324	-0.28530228
13	0xbe54fd2f	-0.20799707
14	0xbde304f4	-0.11084929
15	0xbdc6873c	-0.09693763
16	0xbe66ab0a	-0.22526184
17	0xbda5e076	-0.08099453
18	0x3e3d7274	0.18500692
19	0xbe5a98fe	-0.21347424
20	0xbd57ef41	-0.052718405
21	0xbc2b2b83	-0.010447386
22	0xbe37d831	-0.17953564
23	0x3d8040be	0.062623486
24	0xbd8b3b97	-0.06798475
25	0xbe0ded54	-0.13860065
26	0xbda8a259	-0.0823409
27	0x3c3c5303	0.011494401
28	0xbdad69db	-0.08467456
29	0xbdcd20fb	-0.10016056
30	0x3e5a5d00	0.21324539
31	0xbe1407b4	-0.14456064
32	0xbd32cbdf	-0.043651458
33	0x3dffcd7c	0.12490365
34	0xbe31d647	-0.17366897
35	0xbdd09001	-0.101837166
36	0x3d862fa8	0.065520585
37	0xbb96e709	-0.0046051783
38	0x3e125bff	0.14292906
39	0xbd8097a9	-0.06278927
40	0x3cd50a25	0.026005814
41	0x3d00e965	0.031472582
42	0x3dd25043	0.10269215
43	0xbe230e00	-0.1592331
44	0xbdbb599d	-0.09147952
45	0xbe17072d	-0.14748831
46	0x3c3d5a12	0.011557119
47	0x3d789432	0.060688205
48	0x3e551846	0.20810041
49	0xbe01d99c	-0.12680668
50	0x3e633c0e	0.22190878
51	0xbca50599	-0.02014427
52	0x3cab5323	0.020913666
53	0xbe1e6681	-0.1546879
54	0xbe4677de	-0.19381663
55	0x3cf321d9	0.029679226
56	0xbc589ff3	-0.013221729
57	0xbe5ca1f0	-0.21546149
58	0xbcff8027	-0.031189037
59	0x3c47277e	0.012155412
60	0x3c2d5662	0.010579677
61	0xbd6155d3	-0.05501349
62	0x3e2f554c	0.17122382
63	0x3d080fe8	0.033218294
64	0xbd08083c	-0.033210978
65	0xbe3fce2a	-0.18730989
66	0xbdda358d	-0.10654745
67	0xbd26a97a	-0.04068897
68	0xbc36a57b	-0.011147852
69	0xbd91231a	-0.07086773
70	0x3e054001	0.13012697
71	0x3de17f0b	0.1101056
72	0xbc247b4b	-0.010039161
73	0x3b592114	0.0033131288
74	0xbdae3d12	-0.08507742
75	0xbe291bee	-0.1651456
76	0xbe1cc5d1	-0.15309836
77	0xbe229847	-0.15878402
78	0x3db57e43	0.08861973
79	0xbda4b464	-0.08042219
80	0xbd999892	-0.074998036
81	0xbdeb3093	-0.11483874
82	0x3ca5fbe2	0.020261709
83	0x3e0c90fe	0.13727185
84	0x3cd826df	0.026385723
85	0xbe2ca14c	-0.16858405
86	0xbe93026e	-0.2871279
87	0xbcb8f864	-0.02257938
88	0x3e38141b	0.1797642
89	0xbb9472ca	-0.0045302855
90	0x3d3dd30b	0.046343844
91	0x3d8adeac	0.067807525
92	0xbb826df8	-0.0039803945
93	0x3d134a9f	0.035959836
94	0xbd9aa804	-0.07551578
95	0xbc9d8a90	-0.01923111
96	0x3e7c8dbb	0.24663441
97	0xbd3d2177	-0.046174493
98	0xbdbeecd9	-0.09322519
99	0x3e09b790	0.1344893
100	0xbae7f05b	-0.0017695533
101	0x3ccd0561	0.025026979
102	0x3e30e5e1	0.17275192
103	0x3e1b1b63	0.15147166
104	0xbe5f48cb	-0.21805112
105	0x3e1a714e	0.15082285
106	0x3d3d18ae	0.046166115
107	0x3e348c1a	0.1763157
108	0xbdca4d3c	-0.098780125
109	0xbdd94123	-0.10608127
110	0x3df40d56	0.11916606
111	0xbd05689a	-0.03257046
112	0xbdfc2cdb	-0.12313243
113	0xbe1f349e	-0.15547416
114	0x3d4d887a	0.050178982
115	0xbe7961e5	-0.2435375
116	0x3d59874e	0.053107552
117	0x3d02c810	0.031929076
118	0xbaed7149	-0.0018115427
119	0x3bdaedaf	0.006681166
120	0xbd27058e	-0.04077678
121	0x3b68a490	0.0035498478
122	0x3cc80dbd	0.024420613
123	0xbd682f14	-0.056685522
124	0xbe09d4c0	-0.13460064
125	0xbdb68f8c	-0.08914098
126	0xbd836d6c	-0.06417355
127	0x3c4c4c09	0.0124693
128	0x3de26baa	0.110556915
129	0xbb3fd92f	-0.0029273739
130	0xbc85f0f0	-0.01635024
131	0xbd851b66	-0.064993665
132	0xbdb006bd	-0.08595035
133	0xbd3b561d	-0.04573642
134	0xbd46896e	-0.048470907
135	0xbdd817fb	-0.10551449
136	0x3e48d5ee	0.19612858
137	0xbdf7c69a	-0.12098427
138	0xbdb4e850	-0.088333726
139	0x3dda403b	0.10656782
140	0xbd943a29	-0.07237656
141	0x3da5aa15	0.08089081
142	0x3dff88bb	0.12477251
143	0xbde4f42b	-0.11179384
144	0xbc9ffe26	-0.019530367
145	0xbd359901	-0.04433537
146	0xbca986ed	-0.02069422
147	0xbe31fa79	-0.17380704
148	0xbd0250f1	-0.031815473
149	0xbd6cd87c	-0.057823643
150	0xbd2f1fd3	-0.04275496
151	0x3d0e35c6	0.03471925
152	0xbccfc7a0	-0.025363743
153	0x3c5d8813	0.013521212
154	0x3db785e4	0.089610845
155	0x3d5ec609	0.05438808
156	0xbdafaf89	-0.085784025
157	0xbcba6820	-0.022754729
158	0xbb0f7326	-0.0021888702
159	0xbe024a7f	-0.1272373
160	0x3d7e342e	0.06206148
161	0x3d5f4819	0.054512117
162	0x3d91834e	0.071051225
163	0x3d2cf619	0.042226885
164	0xbcf76fb8	-0.030204639
165	0xbd85610b	-0.0651265
166	0xbaa46a20	-0.0012543835
167	0x3c93a33a	0.018022168
168	0x3d318185	0.04333641
169	0xbd3434fa	-0.043995835
170	0xbcacb123	-0.02108056
171	0x3b4926af	0.0030693223
172	0xbd1575d6	-0.03648933
173	0xbd604aad	-0.054758716
174	0x3c8b0942	0.016972188
175	0xbd44ad44	-0.0480168
176	0xbd12f0fd	-0.035874356
177	0x3c14f5be	0.009091793
178	0x3b8f839f	0.004379704
179	0xbd4a2815	-0.04935463
180	0xbd67b8a5	-0.056572575
181	0x3d8c3480	0.06845951
182	0xbdbbe7b2	-0.09175052
183	0x3d1ce2ca	0.03830222
184	0xbca8da38	-0.020611867
185	0x3c0dd16b	0.008655886
186	0x3cc2400e	0.023712184
187	0xbd726a97	-0.059183683
188	0xbd5ad0dd	-0.053421844
189	0xbb7edb7a	-0.0038888142
190	0x3df3b917	0.119005375
191	0xbd2c58ec	-0.04207699
192	0xbd825002	-0.063629165
193	0xbda26b7f	-0.079306595
194	0xbe0b8d76	-0.13628182
195	0xbd749e38	-0.0597212
196	0xbd96ff16	-0.073728725
197	0xbdd03e00	-0.101680756
198	0xbe00bd74	-0.1257227
199	0xbdc51800	-0.09623718
200	0xba8d8226	-0.0010796234
201	0x3d216837	0.039406028
202	0xbd061d44	-0.032742754
203	0xbddeac83	-0.10872748
204	0xbd9577df	-0.07298254
205	0xbca5ef82	-0.020255808
206	0xbc57fd40	-0.013182938
207	0x3d5b290c	0.053505942
208	0x3d8c7acd	0.0685936
209	0xbdc7e79d	-0.097609736
210	0x3ccb31b8	0.024803981
211	0x3e0e7288	0.13910878
212	0xbe04c45b	-0.12965529
213	0x3d100a40	0.035166025
214	0x3d36ce9c	0.04463063
215	0xbd885a14	-0.06657806
216	0x3e28ad08	0.16472256
217	0xbe2d4afa	-0.16923133
218	0xbd6f5043	-0.058426153
219	0xbd94faf4	-0.07274428
220	0xbcb680c6	-0.0222782
221	0xbcab0278	-0.0208752
222	0xbcd90228	-0.026490286
223	0xbe11356c	-0.14180535
224	0xbd7aa5ba	-0.061193205
225	0xbc93309a	-0.017967511
226	0x3d8c379c	0.06846544
227	0x3d2f36f9	0.042777035
228	0xbddcda1d	-0.10783789
229	0x3c08f35b	0.008358802
230	0x3d76b67b	0.06023262
231	0x3cab77dc	0.020931177
232	0xbdcf3f00	-0.10119438
233	0xbdd8ebfd	-0.10591886
234	0xbd9f358c	-0.07773885
235	0x3dc10e47	0.09426551
236	0xbd817eae	-0.0632299
237	0xbdb8035f	-0.08985018
238	0xbdf12908	-0.11775404
239	0xbd1efb80	-0.038814068
240	0xbdbfdb10	-0.09367955
241	0xbd060b66	-0.032725714
242	0xbd3fbf2b	-0.04681317
243	0xbdbdf246	-0.092747256
244	0x3d5be510	0.053685248
245	0x3d352d5f	0.044232722
246	0xbd469b41	-0.048487905
247	0xbd941c52	-0.07231964
248	0xbd6ed981	-0.058312897
249	0xbd281b0f	-0.04104143
250	0xbcdb3189	-0.026757019
251	0x3df5b58d	0.11997519
252	0xbdcf7045	-0.101288356
253	0xbd893893	-0.06700244
254	0xbbfd0472	-0.007721477
255	0xbd4736ba	-0.048636176

fc2.bias f4 [84]
0	0x3e6c49f9	0.23075093
1	0xbdeb4a99	-0.11488838
2	0x3ecefdbb	0.40427956
3	0xbbded551	-0.0068003316
4	0xbd97dea8	-0.07415515
5	0x3d9f8e23	0.07790782
6	0x3f3b5ca8	0.7318826
7	0xbe07651a	-0.13222161
8	0x3ec07050	0.37585688
9	0x3dc0236c	0.09381756
10	0x3e32e3d8	0.17469728
11	0x3e82ef53	0.25573215
12	0x3d1efb40	0.03881383
13	0xbd53233c	-0.051547274
14	0x3e909673	0.28239784
15	0xbd9b5b71	-0.075858004
16	0x3e182ae3	0.1486011
17	0x3e965b73	0.29366645
18	0x3eb1b381	0.34707263
19	0x3ed876dc	0.42278183
20	0xbdeb5513	-0.11490836
21	0x3e0b1356	0.13581595
22	0x3e25dc9a	0.16197434
23	0x3d439a3f	0.047754522
24	0x3ed5e629	0.4177716
25	0x3e5ec3bd	0.21754356
26	0x3d734a88	0.05939725
27	0x3e90409b	0.2817429
28	0xbce5b270	-0.028039187
29	0x3eab2ae7	0.3343117
30	0x3eb83b56	0.3598277
31	0xbe036b17	-0.1283382
32	0x3d81431a	0.06311627
33	0x3e2ca95c	0.1686148
34	0x3d819230	0.06326711
35	0x3c174926	0.009233749
36	0x3eca327e	0.39491647
37	0x3e0a01c8	0.13477242
38	0x3e7c4aec	0.24637955
39	0x3d8a41f9	0.067508645
40	0x3ed31b81	0.4123192
41	0x3ee872eb	0.45400175
42	0x3eb27263	0.34852895
43	0x3e129e53	0.14318208
44	0x3e9b293c	0.30304897
45	0xbbee263f	-0.007267743
46	0xbe3e0061	-0.18554832
47	0x3e0ac972	0.13553408
48	0xbd5a2eea	-0.053267397
49	0x3c83ace1	0.016073646
50	0xbe33324e	-0.17499658
51	0x3f08118c	0.53151774
52	0x3e24bc93	0.1608756
53	0x3e1ac759	0.15115108
54	0xbe522281	-0.20520975
55	0x3e99c525	0.30033222
56	0x3e3819ea	0.17978635
57	0x3eb8ad62	0.3606978
58	0x3e00a848	0.12564194
59	0xbde70e38	-0.11282009
60	0xbd85de21	-0.06536508
61	0x3f1c7d42	0.6112863
62	0x3eaf4a99	0.342366
63	0x3eebcf15	0.4605643
64	0x3f38340d	0.71954423
65	0x3e8b9733	0.27263793
66	0x3d9bfb4e	0.07616292
67	0x3e9db6ce	0.3080353
68	0x3e863306	0.26210803
69	0xbe1b27f2	-0.15151957
70	0x3f5f3241	0.87186056
71	0x3f3388e9	0.70130783
72	0xbd62a162	-0.055329688
73	0x3f013492	0.5047084
74	0xbd7ede80	-0.06222391
75	0x3e08d721	0.13363315
76	0xbd105edf	-0.035246726
77	0x3e3cfdbe	0.1845617
78	0x3ebbc9af	0.3667731
79	0xbd957816	-0.07298295
80	0x3c08872c	0.008333009
81	0x3d9fa6a6	0.077954575
82	0xbd364d95	-0.04450758
83	0x3d8d2599	0.06891937

fc3.weight f4 [10, 84]
0	0x3d2e60ca	0.042572774
1	0x3e26a3fa	0.1627349
2	0x3df21310	0.11820042
3	0xbe19d315	-0.15021928
4	0x3c895723	0.016765183
5	0xbe01eb5d	-0.1268744
6	0xbe785695	-0.24251778
7	0x3e4d13d5	0.20027097
8	0xbebef524	-0.37296402
9	0x3daa39e7	0.08311825
10	0x3c273bda	0.010207141
11	0x3dd26f19	0.102750964
12	0x3e7e6649	0.24843706
13	0x3e66d703	0.22542958
14	0xbe73b7f3	-0.2380064
15	0x3d3fdb85	0.04684021
16	0xbed4651a	-0.41483384
17	0x3db5d32f	0.08878171
18	0xbead1b05	-0.33809677
19	0x3d984a5d	0.07436059
20	0x3dd994c9	0.10624082
21	0xbe00ebc3	-0.12589936
22	0x3d38c5a6	0.045110367
23	0xbe5e8ecb	-0.21734159
24	0xbc062351	-0.008187131
25	0x3e916aaf	0.28401706
26	0xbe1d09dc	-0.15335792
27	0x3d61eb69	0.055156145
28	0x3df1ced8	0.118070304
29	0x3dc5a4d4	0.09650579
30	0xbdbb6c8c	-0.09151563
31	0x3d81a388	0.06330019
32	0x3e3d7f0d	0.18505497
33	0xbdf2dcd1	-0.11858524
34	0xbd3ae315	-0.04562672
35	0xbe1f6c39	-0.15568627
36	0xbd5d3493	-0.054005217
37	0x3def4478	0.11682981
38	0xbdd85d44	-0.10564664
39	0xbd660eb0	-0.05616635
40	0xbdbf1396	-0.093299076
41	0x3da0af48	0.07845932
42	0x3d52c647	0.051458623
43	0xbdf8fc7c	-0.121575326
44	0x3e5350fb	0.2063636
45	0xbe32e693	-0.1747077
46	0x3e175d6a	0.14781728
47	0x3dc60d8a	0.09670551
48	0x3dae33ae	0.08505951
49	0x3da4a05c	0.080383986
50	0x3e82385d	0.25433627
51	0xbead8281	-0.3388863
52	0x3e65f95f	0.22458409
53	0x3e26f299	0.16303481
54	0xbe09c8eb	-0.1345555
55	0x3e098e0a	0.1343309
56	0x3e600da4	0.21880203
57	0xbe3ee65a	-0.1864256
58	0x3e877862	0.26459032
59	0x3d9e9026	0.07742338
60	0xbd11a33d	-0.035556067
61	0xbcf6e939	-0.030140506
62	0x3ccc7b04	0.024961002
63	0xbdb9ef4f	-0.090788476
64	0xbdc7250b	-0.09723862
65	0x3c021c73	0.007941353
66	0x3d96a3d3	0.07355466
67	0x3d84cab6	0.064839765
68	0x3d5fc01a	0.05462656
69	0x3e8140d6	0.25244778
70	0x3e3ba911	0.18326212
71	0xbea2cf38	-0.3179872
72	0x3e596bcb	0.21232526
73	0x3db72221	0.089420564
74	0xbe09739c	-0.13423008
75	0x3e4a5e73	0.19762592
76	0x3e1f33ab	0.15547054
77	0xbdeecddd	-0.11660359
78	0x3e100340	0.1406374
79	0x3cf3e3d7	0.029771728
80	0xbca254dd	-0.019815857
81	0xbd515942	-0.051110514
82	0xbe5464d4	-0.20741588
83	0xbd31fb98	-0.04345283
84	0xbd9666a9	-0.073437996
85	0xbd9a26d3	-0.075269364
86	0x3ea57989	0.32319286
87	0xbd87b519	-0.066263385
88	0xbe08e00c	-0.13366717
89	0x3de81bcf	0.11333429
90	0xbdb8658e	-0.09003745
91	0x3dd8415d	0.10559342
92	0x3e2e3404	0.1701203
93	0x3e8679aa	0.26264697
94	0xbe8e6178	-0.27808738
95	0x3e98e8c9	0.298651
96	0xbe41c261	-0.18921806
97	0xbddfe869	-0.109330006
98	0xbe23b70e	-0.15987799
99	0x3dcebd46	0.10094695
100	0x3de4d04f	0.11172544
101	0x3b08ae47	0.002085583
102	0xbd22e63c	-0.03977035
103	0xbe9cbff4	-0.306152
104	0xbda61ec3	-0.08111336
105	0x3db3906e	0.08767782
106	0xbda2efb8	-0.07955879
107	0xbe1a5669	-0.15072025
108	0xbd51b619	-0.051199052
109	0x3dc8d590	0.09806359
110	0xbcf915bc	-0.030405872
111	0x3da71ca5	0.081597604
112	0xbdbf46e6	-0.09339695
113	0xbd98df52	-0.0746447
114	0x3db26fdd	0.087127425
115	0x3d83c4f3	0.064340495
116	0x3e399433	0.1812294
117	0x3e3d8159	0.18506373
118	0x3d498dfc	0.049207672
119	0x3e0c4d43	0.13701348
120	0xbe0f36f9	-0.13985814
121	0x3e9554f8	0.2916639
122	0x3e5ecd52	0.21758011
123	0xbe2847fb	-0.16433708
124	0xbe5a4fd7	-0.21319519
125	0xbe88466e	-0.26616234
126	0xbe62d5b7	-0.22151838
127	0xbe3af5d3	-0.18257837
128	0x3e800dd9	0.25010565
129	0x3dc27816	0.09495561
130	0x3dbf06c5	0.09327463
131	0x3e357870	0.17721725
132	0x3d692419	0.05691919
133	0x3e3d32ad	0.18476363
134	0xbdd5ef20	-0.10446
135	0xbe0b6105	-0.13611229
136	0xbd2a8244	-0.041628137
137	0xbdfa6847	-0.122269206
138	0x3e68f7d9	0.22750796
139	0xbcefa473	-0.02925322
140	0xbd8e25a4	-0.06940773
141	0xbe5f8701	-0.21828844
142	0xbd86cc30	-0.065819144
143	0x3ea1c5fb	0.3159636
144	0xbddbf467	-0.107399754
145	0xbe0fcdba	-0.14043322
146	0xbe248185	-0.16065033
147	0xbdc009bc	-0.09376857
148	0xbed882f8	-0.4228742
149	0x3e34b186	0.17645845
150	0x3e7ffb3a	0.24998179
151	0xbdffbdd0	-0.12487376
152	0xbdf8df34	-0.121519476
153	0x3c97a17a	0.018509615
154	0xbe85e4ae	-0.2615103
155	0x3d983cb3	0.074334525
156	0xbce22664	-0.027606197
157	0x3dc581ec	0.09643921
158	0x3c600fdc	0.013675656
159	0xbe11f474	-0.14253408
160	0x3ba5be05	0.0050580525
161	0xbcc3845e	-0.023866829
162	0xbd17bba2	-0.037044175
163	0xbde734e8	-0.11289388
164	0x3dd96c8b	0.10616406
165	0x3dd5cad5	0.10439078
166	0x3bda89d5	0.006669263
167	0xbe408ab7	-0.18802916
168	0x3e399ec3	0.18126969
169	0xbcfa1d72	-0.030531619
170	0xbe67119f	-0.22565316
171	0x3dc99a81	0.098439224
172	0x3e800040	0.2500019
173	0x3d07b6e9	0.03313342
174	0x3e50153a	0.20320597
175	0x3e149e85	0.14513595
176	0xbda72cbe	-0.08162831
177	0x3da93e28	0.082638085
178	0x3e44c2d3	0.19214945
179	0xbe01dcc6	-0.12681875
180	0xbdb41d1a	-0.08794613
181	0x3db2a00e	0.08721934
182	0x3e707a71	0.23484208
183	0x3de719c6	0.11284213
184	0xbdc3d9ff	-0.09563064
185	0xbda240d2	-0.0792252
186	0xbd414b3a	-0.047190882
187	0x3da3c3f1	0.07996357
188	0x3e20e2b3	0.15711479
189	0x3e5f5b4e	0.21812174
190	0x3d45cb51	0.0482896
191	0xbe158611	-0.14601924
192	0xbe428d49	-0.18999209
193	0x3e7cd018	0.24688756
194	0xbd8190fa	-0.0632648
195	0xbe97715f	-0.29578683
196	0x3e18d9eb	0.14926879
197	0xbe5f554d	-0.21809883
198	0xbdfb67cd	-0.12275658
199	0x3dc01209	0.0937844
200	0xbe1a601a	-0.15075722
201	0x3e146f00	0.14495468
202	0x3daf783a	0.08567853
203	0x3e193cf9	0.14964665
204	0xbdc2ea65	-0.095173635
205	0xbe24a10f	-0.16077064
206	0x3df062eb	0.11737617
207	0xbcfa8daf	-0.030585138
208	0x3e42fc67	0.19041596
209	0x3e7e5290	0.24836183
210	0x3e0c3c79	0.13694943
211	0x3dbaf3a9	0.09128506
212	0x3d41aba5	0.047282834
213	0xbd294f8c	-0.041335627
214	0xbd9d0a3c	-0.07667968
215	0xbe805c26	-0.25070304
216	0xbd7c2233	-0.061556052
217	0x3e62b2b4	0.22138482
218	0x3e9e00d5	0.3086001
219	0x3d0592ce	0.032610707
220	0x3cf5339b	0.029931834
221	0x3e111841	0.14169408
222	0xbe426291	-0.18982913
223	0xbdacf0c8	-0.08444363
224	0x3c2cce73	0.010547268
225	0x3c1dc8e1	0.009630413
226	0xbd581c97	-0.05276164
227	0xbe07dc6c	-0.13267678
228	0xbcaa05a3	-0.02075464
229	0x3e20d2b2	0.15705374
230	0x3e4a1012	0.19732693
231	0x3c7e6652	0.015527325
232	0x3e46e188	0.19421971
233	0xbe30ddd7	-0.17272125
234	0xbe19fa5f	-0.15036915
235	0x3d800e09	0.06252677
236	0x3d02dfce	0.031951718
237	0x3d77a038	0.06045553
238	0x3da2edc3	0.07955506
239	0x3dbc6093	0.091981076
240	0x3d5a73b8	0.053333014
241	0xbd28f4df	-0.041249152
242	0xbdac4d5a	-0.08413191
243	0x3dc0115b	0.0937831
244	0x3e073269	0.13202824
245	0xbd691880	-0.05690813
246	0x3e6c0718	0.23049581
247	0x3e198ba9	0.14994682
248	0x3d762b45	0.06009986
249	0x3d702de5	0.05863752
250	0xbe305ed5	-0.17223676
251	0x3e0e2a86	0.13883409
252	0x3d30e964	0.04319133
253	0xbd2f317a	-0.042771794
254	0xbe086568	-0.13319933
255	0x3e942b63	0.2893935

fc3.bias f4 [10]
0	0xbec15748	-0.37761903
1	0xbf3a587b	-0.7279126
2	0xbe83a50d	-0.2571186
3	0x3f2f7711	0.68541056
4	0x3f02d81d	0.5111101
5	0x3c37092b	0.011171619
6	0x3e7d5d73	0.2474268
7	0xbea311ff	-0.31849667
8	0x3e19f1dd	0.1503367
9	0xbe021e32	-0.12706831
